weights/actor.pth (torch_old, 327677 bytes, 14 tensors)

fc1.weight f4 [256, 48]
000000 4b eb d7 3d 19 30 6b bd 22 dd ac bb 5b 3f 77 be
       0.105429254 -0.057418916 -0.0052753845 -0.24145262
000010 73 9e 10 3e 7d 5c f1 be ff 92 9a bd b6 81 2e be
       0.14122944 -0.47140875 -0.075475685 -0.17041668
000020 17 13 fa 3c 66 44 b9 bd bd c0 c0 bb 01 66 c8 3c
       0.03052668 -0.09046249 -0.005882351 0.024462702
000030 64 70 a5 3d 1f e4 9f be 8b f9 a6 3c 29 58 d2 3c
       0.080780774 -0.3122873 0.020382663 0.025676804
000040 12 55 d9 3d 0d 79 69 3d 29 8b 61 3c c3 d7 c8 3e
       0.10611929 0.05700021 0.0137660885 0.39227113
000050 1b b2 25 bd 6d 43 d4 bd a6 0d 73 3c fe 28 bd 3e
       -0.040453058 -0.10364423 0.014834797 0.36945337
000060 a8 57 bd bc 0e ab 85 3e 2b 5e f9 bb fa 15 a2 3d
       -0.023113087 0.26107067 -0.0076101026 0.07914348
000070 83 32 d1 bd 0b 69 cc be a7 7f ee bc 19 dd 6c 3d
       -0.102147125 -0.3992389 -0.029113604 0.057828043
000080 bc f7 3e 3d 5b c1 29 3e 31 11 f4 3c 3e ac 90 bd
       0.046622977 0.16577666 0.029793354 -0.070641026
000090 4e ef cd bd 9f 00 4b be d6 fd 80 ba 26 e3 39 bb
       -0.10055409 -0.19824456 -0.0009841274 -0.002836415
0000a0 4d 29 09 3e 4c 71 2d 3e fc e5 a3 3e ec bb 62 be
       0.13394661 0.1693775 0.32011402 -0.22141999
0000b0 ef e7 be 3d 0f 8b 34 be fa 75 8e 3e 92 9b 08 be
       0.093215816 -0.17631172 0.27824384 -0.13340595
0000c0 c2 73 21 3e 49 b1 46 3f d9 01 eb ba c4 a8 36 be
       0.15766814 0.77614266 -0.0017929628 -0.17837816
0000d0 de fb a5 3d 96 9c 82 be 8d 33 bd 3d e3 f2 4f be
       0.081046805 -0.2551009 0.09238348 -0.20307498
0000e0 04 73 42 3d 81 f5 35 3f e8 59 c9 bd c2 10 96 bd
       0.04747297 0.71077734 -0.098316014 -0.07327415
0000f0 59 74 f9 3d fc ed 13 be ba 1e 3c bd 44 68 07 be
       0.12180395 -0.14446253 -0.04592774 -0.13223368
000100 75 84 f6 bc a5 9d 05 3f 9a 27 d5 bc 20 af 81 be
       -0.030092457 0.5219367 -0.02601986 -0.25328922
000110 ae 8d 2d 3e 43 6a e1 3d 7d 34 14 bd 95 2c 7a be
       0.16948578 0.11006596 -0.03618287 -0.24431069
000120 ac 34 89 3d 3c 44 b1 be de a4 3a 3d 08 8c 9d bd
       0.066994995 -0.3462237 0.045567386 -0.076927245
000130 cf fa 86 bb 1e 96 ae be de d4 9c bc 4c 45 72 bd
       -0.004119254 -0.34098905 -0.019144472 -0.059148118
000140 fd 3f 08 3d a6 6c 93 be 7e 7c 03 3d 1b 57 b1 3d
       0.03326415 -0.2879383 0.032101147 0.08659192
000150 d3 e4 96 bd d1 2c 44 be 58 ac 44 bd 47 b6 3b 3d
       -0.073678635 -0.19157721 -0.048015922 0.04582813
000160 4c 25 19 bd ec 48 c0 be fa 81 3f 3e c3 3a 93 3b
       -0.037389085 -0.37555635 0.18701926 0.004493089
000170 66 d6 62 be 70 68 a6 3d 7c c9 88 3e 90 04 58 bb
       -0.22152099 0.081253886 0.2671622 -0.0032961704
000180 92 4e f1 bd 75 59 6c 3e 59 ff f1 3c 28 f5 cd 3e
       -0.11782564 0.23081 0.029540705 0.40226102
000190 2b 6e 6e bd d3 a8 13 be 63 a7 92 3c 29 99 c3 3e
       -0.058210533 -0.1441987 0.017902082 0.3820279
0001a0 1f 87 a5 bc 23 20 aa 3e 21 fe 94 bb 7e e3 6b 3e
       -0.020206032 0.33227643 -0.004546896 0.23036
0001b0 87 68 2e be db 12 7f bd 43 50 97 3c 20 bf 30 3e
       -0.17032062 -0.06227384 0.018470889 0.17260408
0001c0 93 43 9d 3d 6b 35 d4 3e 51 1d 77 3e f2 ef 1c be
       0.076789044 0.41447005 0.24132277 -0.15325907
0001d0 98 48 9a be 65 2a 5a 3e d9 e9 84 3e f5 a6 21 be
       -0.3013351 0.21305235 0.25959662 -0.15786345
0001e0 66 b3 76 bc 34 77 ca 3b c5 cd eb bd 7b 81 3e be
       -0.01505742 0.006178761 -0.11513857 -0.1860408
0001f0 30 07 4b 3d 1d 1a b2 bd e2 76 0b bd 20 80 31 be
       0.0495674 -0.08696387 -0.034048922 -0.17334032
000200 35 81 ad 3d 2d e6 d8 3d 0b 10 6c 3d a4 84 6f 3d
       0.0847191 0.105907775 0.057632487 0.058476105
000210 e8 60 2a 3e 54 b2 e8 3c 63 a6 96 3d c0 92 50 3d
       0.1663853 0.028405346 0.073559545 0.0509212
000220 1d 98 21 3e d4 c8 ac 3d 50 d1 b3 3d f4 21 87 3d
       0.15780683 0.084367424 0.087801576 0.06598273
000230 e2 09 49 3e 31 bf 43 3e 5e d4 97 bc 99 d4 b2 bc
       0.19632676 0.19115902 -0.018533882 -0.02182989
000240 31 a8 06 3e ef 3f 3f 3e b5 c3 46 3c 7e c0 57 be
       0.13150097 0.18676732 0.012131621 -0.21069524
000250 e3 b2 87 3e f5 0d a1 be df da 87 3b 37 be a3 be
       0.26503667 -0.3145596 0.0041459645 -0.3198106
000260 30 16 11 3e bf 76 3c 3e 3f cb 36 bd 92 d9 2d 3d
       0.1416862 0.18404673 -0.044627424 0.04244382
000270 de 69 99 3e 06 b8 b9 be aa 20 d8 bc ec a9 c2 3d
       0.29963583 -0.3627321 -0.026382763 0.09505066
000280 19 53 c2 3d 06 9c 56 3e 8f df 98 bd 6e 3e fa bc
       0.09488506 0.20957956 -0.074645154 -0.030547347
000290 14 b1 d2 3e 73 d1 67 be 63 cf 2c bd b2 b5 ac bd
       0.41150725 -0.22638492 -0.042189967 -0.08433093
0002a0 93 fc 01 3e ae 49 9d 3d 72 da 34 3d 8f 95 71 ba
       0.12694006 0.07680069 0.04415364 -0.00092157064
0002b0 4b cd 57 be 2a dd bd be be 13 30 bd 1e ff 18 3d
       -0.21074407 -0.37082797 -0.042987578 0.037352674
0002c0 83 4f 0f 3e 9e 45 33 3d d8 42 65 3c 9a d2 6a 3d
       0.13995175 0.043767564 0.013992988 0.05732975
0002d0 7b bf 90 be d3 e2 91 be 34 98 fd bc 2d 9f 5b 3d
       -0.28271088 -0.28493366 -0.030956365 0.0536186
0002e0 58 bc ea 3d 58 89 b4 bd 97 3a 77 3c 8a 82 94 3d
       0.11461705 -0.08815259 0.0150896525 0.07251461
0002f0 b7 4c db be d0 25 71 be 26 b6 20 3d 5a 31 97 3d
       -0.42831966 -0.2354958 0.03923621 0.0738246
000300 02 14 a9 3d fa c5 98 be 7a 98 08 3d cc d0 12 3a
       0.08255769 -0.29838544 0.033348538 0.0005600571
000310 b8 47 27 3d 89 40 0e be dc 7c e9 bc aa c6 0e bd
       0.04083988 -0.13891806 -0.02850192 -0.03485743
000320 67 11 94 3d b9 1b e2 be db d0 96 bc ab e9 3b be
       0.07229882 -0.44161776 -0.018410137 -0.18350856
000330 dd ed 26 3e d2 0b 4f 3e de 3a d3 bc c5 c7 01 be
       0.16301675 0.20219353 -0.025784906 -0.12673862
000340 a0 a3 b5 3d 51 2b 0f bf f3 2b 64 bd ca 59 93 be
       0.088690996 -0.5592547 -0.055705976 -0.2877944
000350 94 24 92 3e de b8 08 3f 00 3a bc b9 a9 c9 66 be
       0.28543532 0.53407085 -0.00035901368 -0.22537865
000360 72 3d f2 3d 40 89 ad be 35 a0 33 bc 32 e7 d3 3d
       0.11828126 -0.33893776 -0.010963489 0.103468314
000370 d3 d0 ee bd 05 6e 12 be 39 d6 1b bd f6 fd 2a 3d
       -0.11660924 -0.14299782 -0.038046096 0.041746102
000380 89 45 0f 3e a1 2d 0b bf 86 ea 83 3c f0 1f 37 be
       0.1399137 -0.543665 0.01610304 -0.17883277
000390 1c 2b 2c be 2b 8b 58 3e 5d 85 10 bc a4 86 76 be
       -0.1681332 0.21146838 -0.008820859 -0.24074799
0003a0 bd 55 fa 3d 97 07 2a bf fc 60 96 3d 9a 4c 5a be
       0.122233845 -0.6641783 0.07342717 -0.21318284
0003b0 23 9a 82 be e8 d7 02 3f fd 3f 1c 3c f5 98 58 be
       -0.25508222 0.51110697 0.00953674 -0.21152098
0003c0 73 d4 7c 3e ca 9e ad 3e e8 31 9f 3d a6 30 1d b9
       0.24690418 0.3391021 0.07773191 -0.0001499081
0003d0 77 b9 a0 3c 09 43 f3 be ac 0c 89 3d af 49 b6 bc
       0.019619687 -0.4751208 0.0669187 -0.022251932
0003e0 43 ff 55 3e 42 a5 9b 3e a9 6e 03 3d 72 bc f7 3d
       0.20898156 0.3039952 0.032087956 0.1209649
0003f0 70 2f 85 3c c7 d8 0d be f6 19 5d 3d 9d 15 45 3d
       0.016257972 -0.13852225 0.053979836 0.048116315

fc1.bias f4 [256]
000000 99 ef c2 bd 9b 42 50 3b 6a ba 12 be 7d 73 35 bd
       -0.09518356 0.0031777981 -0.14328924 -0.04429959
000010 f0 75 9b be be 18 39 3c d4 ac 82 bd 0c bc ba be
       -0.30363417 0.011297403 -0.063806206 -0.36471593
000020 52 32 74 3d 7d 1b 13 be 27 22 8d be b0 71 7c be
       0.0596183 -0.14365955 -0.2756512 -0.24652743
000030 6b ea a3 be fe 5f 6e be f6 09 9a be 65 29 1e be
       -0.32014784 -0.23278806 -0.30085725 -0.15445478
000040 34 b0 bc be d6 68 ad be 8e cf 0d be 73 62 fe 3c
       -0.36853182 -0.33869046 -0.13848707 0.031052804
000050 17 d5 ae bd 6e 32 3b be 66 b5 21 3d 9d 54 13 3d
       -0.085367374 -0.18280956 0.039479636 0.035969365
000060 d9 49 68 bd 87 65 27 3d 2e 7c 11 be a7 5f d0 bd
       -0.05671105 0.04086831 -0.14207527 -0.10174494
000070 40 82 33 bd 4c 53 f5 bd 85 91 27 be cd 48 08 be
       -0.043825388 -0.11978778 -0.16364105 -0.13309021
000080 63 14 83 3d 1f 6e e0 bd b6 64 37 be c3 96 f1 bb
       0.06400373 -0.10958504 -0.17909512 -0.0073727085
000090 bb 95 07 3e 45 a8 fb bd da 41 2e be c4 5c 06 be
       0.13240711 -0.12287954 -0.17017308 -0.13121325
0000a0 5e af cf be 55 35 36 be 8b bf 74 bd 98 a5 4d be
       -0.40563482 -0.17793782 -0.059752982 -0.200827
0000b0 30 00 af bd 15 28 4d 3d 3f 15 2d be e6 a2 38 be
       -0.08544958 0.050087053 -0.16902636 -0.18030891
0000c0 0f 17 08 bd 5a 3e 1a be 84 d3 b6 bd 15 05 7e be
       -0.033225115 -0.15062848 -0.08927062 -0.24806626
0000d0 ec d0 2b be 58 ef e2 be b7 da 18 be c5 1a 87 be
       -0.16778916 -0.4432323 -0.14927183 -0.2638761
0000e0 f6 f0 eb bc 3d 99 67 bb 0c fd 2e be 6f e2 97 be
       -0.028801423 -0.003533914 -0.17088717 -0.29664943
0000f0 d1 e8 79 be 30 9c 95 be 21 95 ce be 6b bf 0c be
       -0.24405219 -0.29220724 -0.4034815 -0.13744895
000100 e8 a5 b5 be cb ed de bc 60 ad a9 be 26 21 ac be
       -0.3547814 -0.027212998 -0.33140087 -0.3361904
000110 06 24 aa be bf d5 44 be 26 6d 04 bc 70 02 44 be
       -0.3323061 -0.19222163 -0.008082664 -0.19141555
000120 84 fb 74 be ce 87 b5 3c 32 64 04 be c5 21 9c be
       -0.2392407 0.022159483 -0.12928846 -0.30494514
000130 f4 e5 eb be af 0c 0a bc fe 57 24 be d2 2c 8b bd
       -0.46073878 -0.008425876 -0.16049191 -0.06795658
000140 bd 6a d3 bc 9a cf da be bd c6 b6 bc 3e 12 6c be
       -0.025807733 -0.42736512 -0.022311563 -0.23053834
000150 b3 ee b1 be 10 2c 31 3b 4b a9 a2 be 4e 2c bf 3d
       -0.34752426 0.002703432 -0.31769785 0.09334622
000160 ec ae a3 be 1f d5 8d bd 84 a6 54 be ba dd fd 3d
       -0.31969392 -0.06925415 -0.20766646 0.123958066
000170 cc 32 ad 3d ac 51 08 3e 7c 1b e2 be 33 ff b2 be
       0.08456954 0.13312405 -0.44161594 -0.34960327
000180 f5 d0 5c be a3 d8 2a be 06 44 a6 be fd 10 dc 3d
       -0.21564086 -0.16684203 -0.32473773 0.10745428
000190 ee 3b c6 3c f6 fb df 3d 54 fa 91 be cb d3 c8 be
       0.024198499 0.109367296 -0.28511298 -0.39224085
0001a0 52 24 34 be 71 80 0d be 0e a7 f0 bd bc 8b c3 3c
       -0.1759198 -0.13818528 -0.11750613 0.023870341
0001b0 75 de be be 62 e3 36 be 5d 61 7f be 03 54 93 be
       -0.37279096 -0.17860177 -0.24939485 -0.28775033
0001c0 d5 98 9b bd 73 52 f0 3d 0c da b1 bd 44 8c 98 bd
       -0.0759751 0.11734476 -0.08684167 -0.074486285
0001d0 b2 e2 ff 3d 18 67 19 bd a9 f0 ca be 45 d1 ab be
       0.124944106 -0.037451833 -0.39636734 -0.33558097
0001e0 8e c1 a6 be 5a 89 39 bc d1 b6 46 be 85 d0 ff bd
       -0.32569546 -0.011324251 -0.19405676 -0.12490944
0001f0 32 9f b6 be 4d e9 65 be b7 58 cd be 88 bc b2 bd
       -0.3566833 -0.22452278 -0.40106747 -0.08727366
000200 43 75 89 be 29 00 ef bd f9 41 8b be 5d 08 a5 bc
       -0.26847276 -0.116699524 -0.2719877 -0.02014559
000210 44 a5 ef 3c 89 78 56 3d 9b 7f 73 be 2e e4 92 bc
       0.02925361 0.052361045 -0.23779146 -0.01793107
000220 e1 56 6e be fa 5e 96 3c 1e bb ce be fe 76 a3 bd
       -0.23275329 0.018355835 -0.40377134 -0.0798168
000230 6c 2d 50 be 86 73 33 be 84 fa 45 3d 79 da f5 bd
       -0.20329827 -0.17524537 0.048334613 -0.12004561
000240 c8 f7 b5 bd f6 0b 32 be ad 40 3d be 8a e1 9c be
       -0.08885151 -0.17387375 -0.18481703 -0.30640823
000250 e2 6c 2d be 2f 7a c4 be 66 46 ce be 5b 59 4f be
       -0.16936067 -0.3837447 -0.40288085 -0.2024893
000260 b2 31 e2 be f1 2a ba bd cc 31 83 3d 4c 76 88 be
       -0.4417854 -0.09090222 0.064059824 -0.26652753
000270 74 4c b3 bc af 0c 50 be b7 98 0d be 3f aa 83 be
       -0.021887042 -0.20317338 -0.13827787 -0.25715825
000280 24 2d 2a be 63 aa 8a be cd dd dc be 4b b4 b0 be
       -0.16618782 -0.2708312 -0.4313797 -0.34512553
000290 12 9e cd be 65 43 58 be 6c 22 d7 3d f0 71 0b be
       -0.4015966 -0.21119459 0.10504612 -0.13617682
0002a0 c6 97 c5 be 25 7c 42 bc 93 e9 7c be 76 28 5a be
       -0.38592356 -0.011870419 -0.24698476 -0.21304497
0002b0 99 ce a1 bd 11 ec a4 be 2b a2 8e be 8a 5b 9d be
       -0.079007335 -0.32211354 -0.278581 -0.307339
0002c0 90 6a 10 bd 32 9b 90 be 4d 77 89 be 28 81 cc bd
       -0.035257876 -0.28243405 -0.26848832 -0.09985572
0002d0 85 73 14 be d6 d6 eb bd 7b ef 04 be 92 8b 42 be
       -0.14497192 -0.11515586 -0.1298198 -0.18998554
0002e0 2b a8 9b bd 55 29 18 bb c6 76 2f be 61 75 ec bd
       -0.07600435 -0.0023217995 -0.17135152 -0.11545826
0002f0 8c be c7 be a5 42 ca bd d0 bf 72 be 6a 9a 84 be
       -0.39012563 -0.09875993 -0.23705983 -0.2589906
000300 21 96 ab be 39 94 aa bd 7f 4f ba be 4c d8 1a 3b
       -0.33512977 -0.083290525 -0.36388776 0.0023627458
000310 c5 d0 09 3e f2 24 b9 bd d9 ce 4e be a8 2a 24 3d
       0.13458546 -0.0904025 -0.20196094 0.040079743
000320 6e 71 06 be 7c 61 1e be bc 4a 72 be e9 46 11 be
       -0.13129207 -0.15466875 -0.23661321 -0.14187206
000330 b7 08 8c be e0 db f6 bd cb d7 99 bd e9 ec 67 be
       -0.273504 -0.120536566 -0.07511862 -0.22648968
000340 1e da 17 3c 95 59 85 3d 30 40 19 bc 6e 00 78 bc
       0.009268312 0.06511227 -0.009353682 -0.015136821
000350 0c 6d d8 bd a4 6b 73 be f4 09 e0 bc 66 c6 d1 bd
       -0.10567674 -0.2377153 -0.027348496 -0.102429196
000360 9b cc bc be 85 d7 e8 bd be fe ab be 07 ab b1 be
       -0.36874852 -0.11369232 -0.3359279 -0.34700796
000370 a8 c7 96 3d 44 da 56 be f2 e5 88 be e1 32 97 be
       0.073623 -0.20981699 -0.26737934 -0.29531005
000380 2d 6d a7 be 65 c8 f5 bd 6c 0d 11 be f7 09 ab be
       -0.32700482 -0.12001113 -0.14165276 -0.3340604
000390 6d 7b 6d be b4 e0 50 bd c3 a6 3f be ba 67 f0 bd
       -0.23191614 -0.050995544 -0.18715958 -0.11738534
0003a0 96 a3 b5 3d 23 ed 9a be 17 ed 1e be ed 18 0c bc
       0.08869092 -0.30259046 -0.1552013 -0.008550865
0003b0 9a 3a cb 3c df 95 2c bd 5c 08 e1 be e9 d6 b0 bd
       0.024808217 -0.042135116 -0.4395169 -0.08634741
0003c0 ce c7 8e be 0f e7 9f be bd 5e 91 be 89 45 b1 bd
       -0.27886814 -0.3123097 -0.28392592 -0.08655841
0003d0 ac bd 27 be b0 4c fb bc 0d 7f d0 bc 14 14 9d be
       -0.16380948 -0.030676216 -0.025451208 -0.3067938
0003e0 66 8f ee bd 79 15 4c be b6 76 d1 bc 39 1e 67 be
       -0.11648445 -0.19930066 -0.025569301 -0.22570123
0003f0 d3 fb 99 be f0 0d cb 3d ca 66 76 be 39 31 95 be
       -0.3007494 0.09914768 -0.24062648 -0.29139116

bn1.weight f4 [256]
000000 a9 11 32 3f 6e 75 05 3f 6f 60 fb 3e b1 5b e6 3e
       0.695582 0.5213231 0.4909701 0.4499183
000010 1d a5 14 3f d7 6b 1d 3f cf 37 08 3f 1c fd 0c 3f
       0.5806444 0.61492676 0.5321016 0.55073714
000020 56 c8 ff 3e b0 0d 18 3f 5a 8f 14 3f 49 27 ce 3e
       0.49957532 0.59395885 0.5803124 0.40264347
000030 45 9c 94 3e d0 40 23 3f 70 6d 97 3e 74 22 8c 3e
       0.29025474 0.6377077 0.29575682 0.27370036
000040 4e 19 e4 3e 27 cd 85 3f 00 b9 f4 3e 54 ae 0d 3e
       0.44550556 1.0453233 0.47797394 0.13836032
000050 13 83 3c 3f 01 de 0b 3f 2c f0 1d 3f 1d ab a9 3e
       0.73637503 0.54635626 0.616946 0.33138362
000060 8d fb 60 3f 1e 57 c3 3e 2f 70 e3 3e cf 3e 01 3f
       0.87883836 0.38152403 0.44421527 0.50486463
000070 3d 4a 34 3f 3c 13 cc 3e 16 c1 11 3f 64 f3 5a 3e
       0.7042578 0.39858425 0.5693525 0.21381909
000080 7a 3d b3 3e 4c 31 f0 3e f4 78 0a 3e 0d bf 1a 3f
       0.3500784 0.4691261 0.13522702 0.6044777
000090 10 e2 f6 bd 39 50 ec 3e 06 54 53 3f 77 81 00 3f
       -0.12054837 0.46154955 0.82550085 0.5019755
0000a0 5f 90 d6 3e 90 7f 14 3f fd cd aa 3e 2a a1 b4 3e
       0.4190702 0.58007145 0.33360282 0.35279208
0000b0 86 a0 a8 3e 3e 90 0b 3f 04 b6 0b 3f 01 d3 2b 3f
       0.3293497 0.5451697 0.5457461 0.6711884
0000c0 21 50 91 3e e4 dd 04 3f 04 a7 be 3e ef 2f 1f 3f
       0.28381446 0.5190108 0.37236798 0.62182516
0000d0 70 e6 07 3f 1c d4 bd 3e 94 92 9f 3e 05 87 1c 3f
       0.53085995 0.3707589 0.31166518 0.61143523
0000e0 1c 3b 05 3f 95 d5 bb 3e f1 8f d9 3e 22 a1 85 3e
       0.5204332 0.36686388 0.4249263 0.26099497
0000f0 40 8e b4 3e 43 af 64 3f 24 ee 04 3f a8 10 44 3f
       0.35264778 0.8932993 0.51925874 0.76587915
000100 d5 ee a9 3e 2c c8 7b 3f ff f2 5c 3f 23 1d 11 3f
       0.33190027 0.98352313 0.8630828 0.56685084
000110 62 03 ad 3e d8 47 f4 3e 26 50 33 bf e9 cd 0d 3f
       0.33791643 0.47711062 -0.7004417 0.5539232
000120 5c 91 56 3e 10 0e d4 3e 4d cf ea 3e 2d 07 2d 3f
       0.20953888 0.4141698 0.45861283 0.67589074
000130 91 20 1c 3f 28 bf f9 3e 99 bb ac 3e 39 62 0d 3f
       0.6098719 0.48778653 0.33736876 0.55228
000140 fd ff cc 3e 78 14 5c 3e be db 61 3f 15 6e 73 3e
       0.40039054 0.21492183 0.88225925 0.23772462
000150 6e a7 63 3f 32 bc cc 3e 33 d4 01 3f 03 94 86 3e
       0.8892735 0.39987332 0.50714415 0.262848
000160 e0 3c 3b 3f 06 0e 16 3e 2b 65 f5 3e 19 2c 93 3e
       0.7313976 0.14653787 0.47928748 0.2874458
000170 e3 ca 22 3f 52 4f 31 3e f8 77 60 3f ea 1a 07 3f
       0.6359083 0.17315415 0.8768306 0.5277544
000180 1f 82 da 3e 77 0e 81 3e 96 a5 11 3e 28 98 89 3e
       0.426774 0.25206348 0.14223322 0.26873899
000190 5d 99 0c 3f 02 da 66 3f af 1a 8b 3e 38 11 eb 3e
       0.54921514 0.90176404 0.27168795 0.45911574
0001a0 54 fa 9f 3e 4b c1 00 3f b1 a9 e6 3e bb ac b8 3e
       0.31245673 0.5029494 0.4505134 0.36069283
0001b0 e5 ab 89 3f 04 41 d1 3e ee 52 03 3f 2e 6b 3a 3f
       1.0755583 0.40869915 0.51298416 0.72819793
0001c0 77 e0 a2 3e f8 ca 10 3f 41 0f 01 3f fa 5f 36 3f
       0.31811878 0.56559706 0.504139 0.712402
0001d0 9f 86 05 3f 5b 17 a8 3e d2 74 9b 3f 66 55 a5 3f
       0.5215854 0.3283032 1.2145026 1.2916687
0001e0 9a d1 18 3f cf 6b 05 3f 80 25 cd 3e 09 6f c1 3e
       0.59694827 0.5211763 0.40067673 0.37780026
0001f0 6b 21 4d 3f 99 cc 64 3f 50 d1 0c 3f 69 48 1d 3f
       0.80129117 0.8937469 0.55006886 0.61438614
000200 87 10 42 3f 81 67 fd 3e 78 4f ba 3e 62 5c ae 3e
       0.7580647 0.4949303 0.36388755 0.34054857
000210 9d b5 a3 3e c2 c7 cb 3e 92 ef 24 3e 06 48 49 3f
       0.31974497 0.3980084 0.16107014 0.78625524
000220 9d b3 d7 3e 25 7b 6d 3f 80 38 8f 3f 6a 80 0b 3f
       0.42129222 0.9276603 1.1189117 0.5449282
000230 8d b0 84 3e 3a fd 1d 3f cc 49 4b 3f c7 9d 1e 3f
       0.25915948 0.6171452 0.7940948 0.619595
000240 5f f2 1d 3f 98 6d 23 3f 63 92 e7 be b0 21 0b 3f
       0.61697954 0.638391 -0.45228872 0.5434828
000250 a6 9b 0f 3f 74 70 c7 3e fa a6 ce 3d 43 a5 b9 3e
       0.56096876 0.38952982 0.10090442 0.36258897
000260 7d 3d 30 3f 9f 85 b4 3e ec aa 0b 3f ac 61 27 3f
       0.68843824 0.35258195 0.5455768 0.6538341
000270 17 ed 10 3f 95 e5 d6 3e 39 25 af be 95 cd f3 3e
       0.5661177 0.41972032 -0.34208086 0.47617784
000280 55 21 2c 3f 99 73 e1 3e ac 5a 05 3f f2 a9 77 3e
       0.6723836 0.44033507 0.5209148 0.24185923
000290 d3 60 6e 3f 12 31 d1 3e dd 06 d4 3e fb 15 c9 3e
       0.9311649 0.4085775 0.41411486 0.39274582
0002a0 29 5e 39 3f 51 e1 f0 3e 5e 6b aa 3e d3 f6 1e 3f
       0.724093 0.47046903 0.3328504 0.62095374
0002b0 e1 f6 1b 3f 43 8c 6d 3e dd bf 85 3e 6a 8b 18 3e
       0.6092358 0.23198037 0.26122943 0.14896932
0002c0 24 69 0e 3f 76 d7 83 3e 37 eb 96 3e da cb ea 3e
       0.5562918 0.2575032 0.2947633 0.4585865
0002d0 1e 30 03 3f a6 40 a4 3e 46 a1 05 3f 4c 04 2e 3f
       0.51245296 0.32080573 0.5219921 0.67975307
0002e0 31 85 8f 3e 56 1f 08 3f 65 a5 e2 3e e9 16 90 3e
       0.28031304 0.53172815 0.4426681 0.2814248
0002f0 64 76 1b 3f 20 7e ac 3e d8 16 0a 3f e7 fe 0a 3f
       0.60727525 0.33689976 0.53941107 0.542952
000300 c2 44 54 3e eb c9 a9 3e 2c b6 48 3f 90 73 0c 3f
       0.20729354 0.33161864 0.7840297 0.54863834
000310 cb 74 86 3f 70 11 7a 3e 3f 45 d8 3e f6 a5 c5 3e
       1.0504392 0.24420714 0.4224033 0.3860318
000320 8d d0 b6 3e c4 71 a7 3e f6 a6 eb 3e 7f 8c d9 3e
       0.35705987 0.32703984 0.4602582 0.42490003
000330 4e 3b 54 3e e1 92 14 3f eb 85 fa 3e d4 44 a1 be
       0.20725748 0.5803662 0.48930296 -0.31497824
000340 0c 14 06 3f 8f 60 a6 3e b1 35 94 3e 89 fc e5 3e
       0.5237434 0.32495543 0.28947213 0.44919232
000350 ff 27 f4 3e 5d a0 81 3f 3f 79 ad 3e 1f 73 ba 3e
       0.47686765 1.0127064 0.33881566 0.36415955
000360 c0 88 68 3e 13 f9 cd 3e d7 21 50 3f c8 bc b6 3f
       0.22708416 0.4022909 0.81301636 1.4276361
000370 86 4a 08 3f 6a 68 52 3e 2b 33 0e 3f 95 34 99 be
       0.53238714 0.20547643 0.55546826 -0.2992293
000380 1e 36 f9 3e 5e 1d a6 3e 57 f2 12 3f c7 cd 86 be
       0.486741 0.3244428 0.5740103 -0.2632887
000390 24 3b 9b 3e e5 03 aa 3e 78 5d 0b 3f 81 39 83 3e
       0.30318558 0.33206096 0.54439497 0.2562981
0003a0 cf b0 b9 3e c7 94 48 3f 3e 1f f8 3e e6 e6 e8 3e
       0.36267707 0.78352016 0.48461336 0.45488662
0003b0 5e 06 ae 3e 67 6e a0 3e 75 13 32 3f d0 b3 26 3f
       0.33989233 0.3133423 0.6956094 0.6511812
0003c0 45 00 08 3f 8a b0 24 3f d9 3d 58 3f 14 c8 e7 3e
       0.5312541 0.6433188 0.8446937 0.45269835
0003d0 47 1a 99 3e 88 33 ad 3e 6f eb dd 3e fc 53 32 3e
       0.2990286 0.33828378 0.43343684 0.1741485
0003e0 6c a0 05 3f bd 3e 13 3f ad e2 fa 3e 6e da c9 3e
       0.5219791 0.57517606 0.49001065 0.3942446
0003f0 42 ee 28 3f bc 5d 85 3f 34 4a a8 3e eb f8 19 3f
       0.6598855 1.041923 0.32869112 0.60145444

bn1.bias f4 [256]
000000 f7 c6 72 3d ea 96 f1 3d 03 5e 8f bd dd 4c 04 3e
       0.05927178 0.11796363 -0.07000353 0.12919946
000010 db 7f cc 3e 43 ce 12 3e ce f5 81 3e f6 2b c7 3e
       0.39941296 0.14336495 0.25382847 0.38900727
000020 e0 ef 30 3e b5 a8 f4 3d b6 26 03 be 38 7e b6 3e
       0.17279005 0.11946241 -0.12807736 0.35643172
000030 9a 17 2e be 46 bb 8e 3c 88 28 2d 3a d9 e3 a4 3d
       -0.17001191 0.017423283 0.0006605466 0.08051271
000040 cb ab 4b 3e 59 8f 81 3e c8 82 84 3e 62 23 04 be
       0.19889753 0.25304678 0.25881028 -0.12904122
000050 2c 8d 4c 3e 4b 32 a0 3e f9 22 78 3e 32 81 ad 3e
       0.19975728 0.3128837 0.24232091 0.3388763
000060 51 c8 6f 3e 6c e6 4e 3e b1 26 35 bd 50 11 14 3e
       0.23416258 0.20205086 -0.044226352 0.14459729
000070 81 28 9e 3d 22 07 09 bd ce 70 90 bd 48 38 0a 3d
       0.07722569 -0.033454068 -0.07052766 0.03374508
000080 5c c2 09 be 16 fd 09 3e b5 c0 a2 be bd 7b 5b 3e
       -0.13453048 0.13475451 -0.3178765 0.21433921
000090 a5 07 98 be a4 f7 86 bd 10 6c 29 3e fe fa 7d 3e
       -0.29693332 -0.065902025 0.16545129 0.24802777
0000a0 19 ce 6c 3d dd b9 9b bd ce a5 82 3d a8 4e c5 3d
       0.057813738 -0.0760381 0.06379281 0.09634143
0000b0 bc 47 be 3d a5 9e 33 3e f2 05 96 3e de 23 89 3b
       0.09291026 0.17540987 0.2930141 0.004185184
0000c0 66 96 d3 3d af 0d d3 3d e4 7b 8f bc a8 04 83 3d
       0.103314206 0.10305344 -0.01751513 0.063973725
0000d0 c2 db 72 3e 52 3a 8f bc 6f c6 9d 3d 12 a5 de 3d
       0.23716643 -0.017483864 0.07703864 0.108713284
0000e0 91 e4 2e 3e fe 9c ba 3e 6b d0 ee 3d 5b b7 63 3d
       0.17079379 0.364479 0.11660846 0.055594783
0000f0 14 6a 82 3e 77 11 a6 3e ce 58 38 3c 0f 6e 0b 3e
       0.25471556 0.324352 0.011251641 0.13616203
000100 44 6c 62 bd 97 56 a4 3e 27 50 0e 3e 83 10 fa 3d
       -0.05527903 0.32097313 0.13897763 0.122101806
000110 b8 a7 9c bc 6d 1e 91 3e 19 84 df be fa 2b 2f 3e
       -0.019122943 0.28343526 -0.4365547 0.1710662
000120 b3 f6 4a 3d a5 7f af 3d 9a 63 53 3e d8 1a 6c 3e
       0.049551677 0.08569268 0.20643464 0.23057115
000130 ea 04 7b 3e ca 0e d2 bc e8 eb 1c 3e 76 88 c7 3d
       0.24513593 -0.025641818 0.15324366 0.09742825
000140 7e ef 57 bd f6 51 70 be 7d 95 1c 3e 78 53 bf 3d
       -0.052718632 -0.23468766 0.152914 0.09342092
000150 8d 30 ee 3d 3d 47 d4 3e 6c c8 33 3e 4e 5e 92 3d
       0.11630354 0.414606 0.17556924 0.071468934
000160 41 5c ba 3e 9c e8 dd be bb 40 92 3d 4c da 96 3d
       0.3639851 -0.4334153 0.071412526 0.073658556
000170 96 4d 79 3e 7b f4 80 bc 41 f9 a3 3e 80 3e 0b 3e
       0.24346003 -0.015741577 0.32026103 0.1359806
000180 4f 8f 83 3e b9 8c 74 39 e3 00 f4 3a 66 25 80 3d
       0.25695273 0.00023322077 0.0018615987 0.06257133
000190 bd 36 47 3e 82 1f 0c 3e 0a d1 87 be e1 1f ae 3d
       0.19454475 0.13683894 -0.26526672 0.08502174
0001a0 30 43 86 3d f7 25 c0 3d 91 61 7b be 4e 14 02 be
       0.06555784 0.09382241 -0.24548937 -0.12703058
0001b0 92 c6 81 3e 10 8a 7c 3d f1 26 28 3e 6a f4 ce 3d
       0.2534681 0.061655104 0.16421105 0.10105212
0001c0 4f ad 0f 3d 71 3b 39 3e 80 fd 0a 3e e1 29 6a 3e
       0.03507739 0.18089081 0.13573265 0.22867538
0001d0 41 ad 1c 3e 8a d7 01 3d d0 f4 ee 3c 2b 74 03 3e
       0.15300466 0.031699695 0.02916947 0.12837283
0001e0 ec 7b 83 3d 7b 0a 7e 3e 33 60 db 3d 46 4a 06 3d
       0.064201206 0.24808685 0.10711708 0.032785676
0001f0 e0 69 70 3e 6a 62 fd 3e fa 90 16 3e 53 88 88 3c
       0.23477888 0.49489146 0.14703742 0.016666567
000200 94 b5 f3 3d 76 a4 89 3e 5e a6 ed 3d ff b2 2d 3d
       0.11899868 0.26883286 0.11603998 0.042407032
000210 68 64 87 bd 5e 11 94 3d 62 99 f5 3c 29 70 8a 3e
       -0.06610948 0.07229875 0.029980365 0.27038696
000220 3b c0 1c bd 61 22 4e 3e bf a3 94 3e d4 b6 14 3e
       -0.038269263 0.20130302 0.29031178 0.14522868
000230 df c9 e0 3d 05 6c ec 3e c3 1d b0 3e 45 d2 8f 3d
       0.10976004 0.46176162 0.34397706 0.070225276
000240 00 3b 3e 3e e0 9a 86 3e 11 57 d1 be bb aa 56 3c
       0.18577194 0.26290035 -0.4088674 0.013102229
000250 38 2c d2 3d aa 21 fc bc eb 3e c5 bd 9a 8c 9e 3e
       0.1026234 -0.030777771 -0.09631141 0.30966645
000260 14 0c 3a 3e c0 ea bc 3c 44 48 a4 3e 6f 69 59 3e
       0.1816867 0.023061156 0.32086384 0.21231626
000270 91 ee 8c 3e 8f ca c4 3d cd 84 00 bf 5c dd 62 3e
       0.27525762 0.096089475 -0.5020264 0.22154754
000280 39 a8 cb 3d 73 d3 37 3e 00 c3 22 be 2e 3b 62 3d
       0.09944195 0.17951755 -0.15894699 0.05523222
000290 aa fb 83 3e a7 29 d5 3e a1 ad 86 bc 78 01 4c 3d
       0.25777942 0.4163334 -0.016440215 0.04980609
0002a0 d9 da 55 3e 18 ca 32 3e a8 1d 27 be 40 f7 70 3d
       0.20884265 0.17459905 -0.16319907 0.058829546
0002b0 48 dd 46 3e de d5 54 bd 14 2c ec bb 28 d3 85 be
       0.1942035 -0.051961772 -0.007207403 -0.26137662
0002c0 84 57 1e 3d b8 dc 8f 3e c7 58 9d 3d 33 2a 0d 3e
       0.03865768 0.28098083 0.076829486 0.13785629
0002d0 fa a5 28 3e 09 f4 c5 3e 9e f5 11 3e 83 b8 ac 3e
       0.16469565 0.38662747 0.14253852 0.3373452
0002e0 25 3a 36 3e 03 cc db 3d 77 33 aa 3d 9b e9 be bd
       0.17795618 0.107322715 0.083105974 -0.093219005
0002f0 5a 69 1c bc 63 a1 90 3e 60 be ad 3d cc e4 84 3e
       -0.009546602 0.28248128 0.08483577 0.25955808
000300 ac f7 06 be 8e e7 27 3e 7c e8 5d 3e 0b 72 c4 bb
       -0.13180417 0.16396925 0.21670717 -0.0059950403
000310 a4 44 53 3e 83 22 91 3e 09 0a 0f 3d df 69 c3 3e
       0.20631653 0.28346643 0.03492168 0.3816671
000320 38 c6 f6 3c 24 c9 15 be 66 e5 0d 3e 78 d8 d1 3d
       0.030123815 -0.1462751 0.1385704 0.10246366
000330 b0 40 38 be ec d6 ab 3d ef 93 41 3e 5d 33 df be
       -0.17993426 0.083906025 0.18904088 -0.43593875
000340 83 d6 00 bc c4 01 cd 3d ef 14 85 3e c7 46 3f 3d
       -0.007863644 0.100101024 0.25992534 0.046698358
000350 4d 2e d8 3d d7 47 ec 3d f3 59 35 3d 3b 9d cf 3d
       0.10555706 0.1153714 0.044275235 0.10137411
000360 4f 20 d0 3d 44 a0 72 3d 5b 4d 7c 3e d9 b0 38 3e
       0.101624124 0.059234872 0.24638884 0.18036212
000370 32 76 91 3e 49 87 26 3e b5 a9 67 bd 44 19 d9 be
       0.28410488 0.16262545 -0.05655833 -0.4240209
000380 5f f4 17 3e 78 01 1f bc 33 70 37 3e 8e 6e 67 be
       0.14839314 -0.00970494 0.17913894 -0.22600767
000390 9d c0 06 3e 0d 8b 0f be b3 11 8b 3e bf 82 6c bc
       0.13159414 -0.14017887 0.2716194 -0.014435469
0003a0 4d c0 00 3e 62 65 d9 3d 3a d8 66 3e d6 7c 3d 3d
       0.12573357 0.1061504 0.22543421 0.04626163
0003b0 59 8d ae be af 09 03 3e ab 89 a9 3d 8c 96 a7 3d
       -0.34092215 0.12796663 0.08278211 0.081830114
0003c0 d5 59 74 3e 28 5c 33 bc b2 64 07 be 74 d1 d8 3e
       0.23862393 -0.010947265 -0.13222006 0.423473
0003d0 15 28 18 3e 31 f0 5a 3d 08 dd 2c 3e 03 60 05 bd
       0.1485904 0.05345172 0.16881192 -0.032562267
0003e0 48 e3 c4 bc d6 97 80 3e b1 b2 22 3e c0 80 2c 3e
       -0.024034157 0.25115842 0.15888478 0.16845989
0003f0 6d 3f 04 3f e9 5a 7f 3e b7 00 65 3e 22 53 41 3e
       0.5165928 0.24937023 0.22363554 0.18879369

bn1.running_mean f4 [256]
000000 ff 3f b7 3f b7 02 c3 3f bc 22 97 40 43 c4 1c 3f
       1.4316405 1.5235204 4.72299 0.6123697
000010 16 c2 37 40 51 fb d3 3e c9 b7 4e 3f fc 9d 41 40
       2.871221 0.41402677 0.80749184 3.0252676
000020 27 84 59 40 c2 66 a7 3e 8f 45 1a 40 d9 d7 ac 3f
       3.398691 0.32695585 2.4104955 1.3503371
000030 ef 1d cd 3f a3 6e a3 3f 45 ec a8 3e 61 ff 2b 3e
       1.602476 1.2768139 0.3299276 0.16796638
000040 a1 2c 91 3e 81 40 f2 3f 08 0b e6 3f 42 a1 f9 3e
       0.28354362 1.8925935 1.7972116 0.48755842
000050 45 3d 29 3f 4b 89 88 3f 25 90 2f 3f 48 28 c5 3e
       0.66109115 1.0666898 0.6857932 0.38507295
000060 0d 5b ed 3f c8 40 b1 3f 65 a0 a9 3f 4c fa 7c 40
       1.8543411 1.3847895 1.3252074 3.952777
000070 58 72 e9 3f d7 51 f3 3f 6e 31 4c 41 04 f4 bb 3e
       1.823802 1.900935 12.762068 0.36709607
000080 d4 62 5f 3f 38 91 79 3f 8a e8 91 3f 2d 8e a6 40
       0.87260175 0.9748721 1.139909 5.2048554
000090 05 53 e5 3f 75 fe 15 40 ec c7 51 40 ac 5c 33 40
       1.791596 2.3436558 3.2778273 2.8025312
0000a0 85 d9 5e 40 2d 41 94 3f c1 ef b6 3e d2 3f 2c 3f
       3.4820263 1.158239 0.35729793 0.6728488
0000b0 f4 04 ae 3f e8 9a 3e 3f f2 b6 32 3f 9d 64 49 3f
       1.3595262 0.7445512 0.698104 0.7866915
0000c0 86 13 a3 3e 1a 49 04 40 d0 52 6f 3f f2 a8 49 3f
       0.31850833 2.0669618 0.93485737 0.78773415
0000d0 9d 13 32 40 28 8e 54 40 8c fd bf 3f de cc 98 3e
       2.782447 3.3211765 1.4999251 0.298438
0000e0 0b 46 04 40 7e 09 8e 41 dc 11 74 3f fd d5 4c 40
       2.066775 17.754635 0.9533975 3.2005608
0000f0 75 09 ba 40 24 51 76 3f 9c 52 0c 40 37 5d 15 40
       5.8136544 0.9621756 2.192542 2.3338144
000100 5c 0c 14 41 20 d9 f1 3e 62 3b 87 40 2e e8 0c 40
       9.253017 0.47235966 4.225999 2.2016711
000110 f2 08 2a 3f ac 35 dd 3f 53 21 c1 3f 3c 4d ea 3f
       0.664199 1.7282004 1.5088295 1.830482
000120 dd d1 84 3f 41 7f 57 3f 87 05 70 3f 9b 7a fd 3f
       1.0376545 0.8417855 0.93758434 1.9803041
000130 d2 c7 ee 3f c8 5f 75 40 c8 be 92 3f 40 de 83 40
       1.865473 3.833971 1.1464472 4.12088
000140 e2 34 55 40 8f ee 93 3e 0c cf c6 3f 34 d1 31 3e
       3.3313527 0.28892943 1.5531936 0.17364961
000150 73 83 89 3f d0 30 49 3f d0 88 f6 3f 97 3b 7e 3e
       1.074324 0.78590107 1.9260502 0.24827419
000160 bb ff 57 3f 98 78 ab 40 7a db 62 3f 96 ac 52 40
       0.8437459 5.358471 0.88616145 3.2917838
000170 91 ce 1b 3f c5 7e 8a 40 af 5b 1d 40 f5 8a 0a 40
       0.6086207 4.327975 2.458721 2.1647313
000180 dd b1 3e 3f 1f cb 1c 40 4d 90 a8 3d 88 e7 db 3f
       0.7449015 2.4498975 0.08230648 1.7180033
000190 71 87 02 40 2b 1f ca 3e aa 82 51 3f cb 2b 16 40
       2.0395167 0.39476904 0.8184 2.346423
0001a0 b4 ff 58 3f 13 c9 3f 40 f4 18 9a 41 15 35 6a 41
       0.8476517 2.9966476 19.262184 14.6379595
0001b0 c7 ff cc 3f 65 14 81 3f 7c b7 7d 3f ff 43 16 3f
       1.6015557 1.0084349 0.991081 0.58697504
0001c0 4f 26 0f 41 78 df 0e 3f 9a 1e 30 3f 06 1a ed 3e
       8.946853 0.55809736 0.68796694 0.46308917
0001d0 fc 39 99 40 aa a9 d8 3f 60 da 24 40 a5 2e 2a 3f
       4.788328 1.6926777 2.5758286 0.66477424
0001e0 f0 26 9d 40 29 fa 45 40 b3 f5 a1 3f 9c e7 49 3f
       4.911003 3.0933936 1.2653106 0.7886903
0001f0 37 11 fa 3f 29 27 51 40 9e bd 10 40 6d a9 ce 3f
       1.9536504 3.2680151 2.2615733 1.6145455
000200 c6 2b 8e 40 c3 37 78 3f e0 55 2b 40 c1 db 79 3f
       4.4428434 0.96960086 2.6771164 0.9760094
000210 a7 72 0e 3f 80 8b fe 3f d7 02 5e 3e 1c 0b c8 3f
       0.55643696 1.9886322 0.21680771 1.562839
000220 ba a4 91 3f 4e ac 18 3e 48 4e a7 3f 88 79 b8 3e
       1.1378396 0.14909479 1.3070765 0.3603022
000230 a8 9d 4b 3f 67 15 8b 3e 97 c2 db 3f 19 68 df 3e
       0.7953744 0.27164766 1.7168759 0.43634108
000240 50 c1 03 3f 4b b7 b3 3f f1 3e f0 3f 09 1a f7 3e
       0.51466846 1.4040312 1.8769208 0.4826205
000250 d0 fa 9a 40 b5 1e 15 40 c0 8e 29 41 7b 28 93 3f
       4.8431168 2.3299992 10.597351 1.1496729
000260 2e 79 cf 3e 0c a6 8e 3e b8 32 ee 3e c3 8b dc 40
       0.4052214 0.2786106 0.4652307 6.8920608
000270 fa 60 15 40 ab 8e 94 3f 66 4d 69 40 9b 5d e3 3f
       2.334044 1.1606039 3.645349 1.7762941
000280 9b 46 69 3f f1 e4 82 3f 52 26 8d 40 70 3e 4c 3e
       0.9112336 1.0226117 4.410928 0.19945693
000290 f1 f4 7f 3e 0d 1f a0 3f fa e0 c9 3f 33 1d 07 3f
       0.24995781 1.2509476 1.5771782 0.5277893
0002a0 71 57 05 41 10 c7 15 40 16 84 5d 3f ea 84 24 40
       8.333848 2.3402748 0.8652967 2.5706124
0002b0 3d ea 0e 40 28 83 5e 3f 93 37 ad 3e 99 07 05 40
       2.2330468 0.8691888 0.33831462 2.0785887
0002c0 d2 c8 04 40 24 e5 41 3e a4 01 ce 3f 6e b5 9f 41
       2.074757 0.18935066 1.6094251 19.963589
0002d0 62 42 27 40 ea c1 2b 40 6b 8e ea 3e f8 7d aa 3f
       2.6134267 2.6837106 0.4581178 1.3319693
0002e0 22 c9 0e 40 cd 95 d1 3f 93 3a 09 3e 9f 54 83 3e
       2.2310262 1.637384 0.1340125 0.25650498
0002f0 c7 af b7 3f 04 dd c5 3f e9 f7 3a 3f 46 64 41 3f
       1.4350518 1.5458074 0.7303453 0.7554363
000300 5e 84 e0 40 55 f8 9d 3f 56 92 dd 3f 7d 99 88 40
       7.016158 1.234141 1.7310283 4.2687364
000310 ae 65 9b 3e 50 1a 06 40 07 6c 11 3f 92 16 48 3f
       0.30351013 2.095356 0.5680546 0.7815944
000320 bf c5 23 3e 8c 70 2a 3f 4e 22 0b 3f 1c 6f de 3e
       0.15993403 0.6657798 0.5434922 0.43444145
000330 0e a1 f3 3e 2b e6 46 40 ad 4f 01 3f e1 78 de 3e
       0.47583812 3.1077983 0.505122 0.43451598
000340 78 47 2d 40 73 e2 cf 3e d3 b4 2d 3e ee 86 14 40
       2.707487 0.40602455 0.1696351 2.3207355
000350 d5 32 06 3f 40 8b ae 40 d5 6d c9 3f d9 73 53 3e
       0.52421314 5.4544983 1.5736643 0.20649661
000360 85 75 78 3e ce 20 a1 3f 2e 3d 9e 3f c0 39 aa 3f
       0.2426358 1.2588136 1.236242 1.3298874
000370 64 3d e0 3f d0 7b ca 40 af 6b 2d 40 35 e1 18 3f
       1.7518735 6.327614 2.7096975 0.5971864
000380 62 ce c9 41 bc 1c 1f 41 71 c8 fd 3f 86 49 9a 3d
       25.225773 9.944515 1.9826795 0.07533555
000390 40 3a f3 3f 51 51 2f 3f da 25 d9 3f 2d 86 9a 3f
       1.9002151 0.68483454 1.6964676 1.2072197
0003a0 f8 5e 69 3f ef a3 ad 3f 4f dd 67 40 16 8a c4 3f
       0.91160536 1.3565654 3.6228826 1.535464
0003b0 17 6b 68 3f 8f d1 49 3f 17 7a ab 40 25 ec 8a 3f
       0.90788406 0.78835386 5.3586535 1.0853316
0003c0 be 77 ec 3e 42 d7 16 40 17 86 44 3e 62 e8 06 40
       0.46185106 2.3568883 0.19191776 2.1079335
0003d0 66 cd 07 3f fe 50 40 3f b3 b1 89 3f cd ac 3f 3e
       0.5304779 0.75123584 1.0757354 0.18718262
0003e0 46 ad 2c 3f b1 56 4f 40 3f e6 50 3f ae d2 18 40
       0.67451894 3.2396662 0.8160133 2.3878589
0003f0 ef 03 30 3f b1 8c 18 3f fe 3b ea 3f a0 03 25 3f
       0.68756 0.5958968 1.8299558 0.64458656

bn1.running_var f4 [256]
000000 35 03 81 41 d8 a4 7f 41 66 23 61 42 3d d5 7b 40
       16.126566 15.977745 56.28457 3.93489
000010 d5 71 96 41 d5 1c 5d 40 ed b0 f1 40 57 9f 73 41
       18.805582 3.4548848 7.5528474 15.226401
000020 59 04 5b 41 fa 2d 10 40 41 12 e3 41 bb 86 65 41
       13.688561 2.2528062 28.383913 14.345393
000030 df 4b 26 41 8e 4a 50 41 4d a2 0d 40 d7 de 6b 3f
       10.393523 13.018202 2.213031 0.921369
000040 79 35 13 40 b9 68 1f 41 25 28 ac 41 87 b5 85 40
       2.3001387 9.963067 21.519602 4.178409
000050 fd 4d e4 40 12 be 43 41 65 38 a5 40 92 79 37 40
       7.13452 12.233904 5.163134 2.866795
000060 f1 a4 1b 41 08 76 69 41 21 f2 57 41 01 cc 7b 41
       9.727769 14.591316 13.4966135 15.737306
000070 64 98 f9 40 8e 53 88 41 c1 29 2c 41 af b8 f5 3f
       7.7998524 17.040798 10.760194 1.9196986
000080 03 e2 09 41 64 35 0d 41 36 6e 22 41 a5 39 c5 42
       8.617679 8.825535 10.151907 98.61259
000090 9d 5e 66 41 76 9d 9f 41 4e eb 78 41 d0 45 92 41
       14.398099 19.951885 15.557447 18.284088
0000a0 18 b5 1f 42 60 5f 0f 41 26 f2 27 40 c6 00 00 41
       39.92685 8.960785 2.6241546 8.000189
0000b0 ad 58 8b 41 36 d1 b3 40 2c de d0 40 f4 32 8d 40
       17.418299 5.6192884 6.5271206 4.41247
0000c0 be d8 07 40 1d 85 84 41 28 f5 c8 40 3c f8 f5 40
       2.122604 16.564997 6.2799263 7.686552
0000d0 14 4c c3 41 b9 ee d5 41 69 39 72 41 03 a7 0a 40
       24.412148 26.741564 15.139016 2.1664436
0000e0 a0 12 61 41 e7 bb ac 42 16 c9 02 41 27 95 39 42
       14.067047 86.367 8.174093 46.395657
0000f0 02 e0 4b 42 e5 71 b7 40 09 37 b2 41 14 67 99 41
       50.968758 5.732653 22.276873 19.175331
000100 29 4d 3a 42 be ae 00 40 18 0e 00 42 f1 61 df 41
       46.57535 2.0106654 32.013763 27.922823
000110 4e 2f b3 40 81 8b 15 41 48 0f 1c 41 8e f0 41 41
       5.5995245 9.346559 9.753731 12.121229
000120 66 ac 17 41 33 f0 dc 40 fb 8a 07 41 13 32 8f 41
       9.479589 6.904321 8.471431 17.89945
000130 74 52 3c 41 27 d2 ef 41 b4 50 c2 40 f2 b0 3c 42
       11.77013 29.977613 6.0723515 47.1728
000140 cf 4c ba 41 6c d7 56 40 f2 7c 07 41 7d a8 75 3f
       23.287504 3.3568983 8.468004 0.9596022
000150 49 20 9c 40 8c 16 25 40 34 8c 12 41 33 fc 9b 3f
       4.878941 2.5795012 9.159229 1.218634
000160 43 73 58 40 c5 b1 92 42 cc c2 b8 40 ae 01 ca 41
       3.382035 73.347206 5.773779 25.25082
000170 27 1e 5a 40 85 83 12 42 57 c4 fe 40 24 18 c0 41
       3.4080904 36.628437 7.9614673 24.011787
000180 56 35 9d 40 4d 2d f3 41 05 b8 f9 3e 5f 3c 0f 41
       4.9127607 30.39712 0.48773208 8.952239
000190 bb 25 96 41 5f 93 da 3f 6f 67 00 41 bf d4 44 41
       18.768423 1.7076224 8.025252 12.30194
0001a0 ca dd eb 40 63 b6 c8 41 95 0e 95 41 8c c2 8a 42
       7.370824 25.089056 18.63212 69.379974
0001b0 b9 a9 8c 40 eb 3a 01 41 bf fc 3b 41 db bb b5 40
       4.395718 8.076884 11.749206 5.6791816
0001c0 bd ef 5e 42 3d a6 98 40 4a be b9 40 11 c3 a4 40
       55.73412 4.7702928 5.8044786 5.148812
0001d0 07 d0 fe 41 4c ab ac 41 b2 2b 22 40 7c b9 9e 3f
       31.851576 21.583641 2.533917 1.2400355
0001e0 61 8e ec 41 c1 5e d7 41 d3 6d 43 41 b1 dc c3 40
       29.56952 26.921267 12.214313 6.12069
0001f0 84 a2 0b 41 9b 15 6f 41 4a fc ad 41 d2 ea bf 40
       8.727177 14.942775 21.748188 5.9974146
000200 d6 e4 28 41 3a eb fc 40 a6 6e d1 41 94 16 de 40
       10.555868 7.903714 26.179028 6.940256
000210 c7 50 b7 40 69 97 a8 41 18 3f b0 3f 12 2e aa 40
       5.7286105 21.07393 1.3769255 5.318124
000220 03 48 d5 40 5b bf 74 3f b5 c7 57 40 66 13 14 40
       6.6650405 0.95604485 3.3715641 2.313684
000230 1f cc f3 40 f2 c1 9c 3f 1c 4e 7d 41 ed 7a 03 40
       7.618667 1.2246687 15.83157 2.0543778
000240 34 75 b7 40 d6 76 05 41 81 0c 70 41 5c 77 96 40
       5.733057 8.341513 15.003053 4.70207
000250 ef f2 b5 41 f8 1c af 41 0b ec 41 42 1c 5f e1 40
       22.74362 21.889145 48.48051 7.04286
000260 f7 7c 3e 40 4a 8f fe 3f 4e 38 e0 3f 77 f0 54 41
       2.9763772 1.9887478 1.7517183 13.308707
000270 3b 9e aa 41 40 f4 5b 41 f2 75 e9 41 f2 92 4f 41
       21.327261 13.747131 29.18259 12.973375
000280 ae 77 a5 40 8c 28 29 41 c5 ca 70 41 8e 59 c7 3f
       5.1708593 10.572399 15.049504 1.5574205
000290 23 5c b7 3f c4 50 1f 41 24 cb 41 41 6d d7 78 40
       1.4324993 9.957218 12.112095 3.8881485
0002a0 83 0b 0d 42 a7 c2 8c 41 9b 84 17 41 29 9d f2 40
       35.261242 17.595045 9.469874 7.5816846
0002b0 de 52 71 41 d4 3e 08 41 3a be 16 40 94 9e ce 41
       15.082731 8.515339 2.3553605 25.82743
0002c0 25 55 6b 41 a9 2c b9 3f 79 3a 62 41 42 fd d8 41
       14.708287 1.4466754 14.139276 27.123661
0002d0 57 d2 ac 41 bb af f9 41 e7 af 08 40 35 bf 0a 41
       21.602705 31.210806 2.1357362 8.671681
0002e0 84 38 8a 41 cb 04 14 41 4b 4e 75 3f 03 cb d0 3f
       17.277596 9.25117 0.9582259 1.6311954
0002f0 ae e5 d4 40 dd ca 3a 41 35 64 f0 40 08 c9 aa 40
       6.653037 11.674527 7.5122323 5.33704
000300 29 7f 0c 42 57 8e 02 41 68 82 c1 40 77 74 50 41
       35.12418 8.159751 6.0471687 13.028434
000310 2b 1c a8 3f 73 76 d6 41 a4 7d 9a 40 8c 9f 8d 40
       1.3133596 26.807837 4.827837 4.425726
000320 84 05 97 3f f4 f6 7b 40 e3 f0 86 40 72 d9 4b 40
       1.1798558 3.9369478 4.216905 3.1851468
000330 fb 06 37 40 ad f8 b3 41 3c 94 8c 40 d3 c2 87 40
       2.859801 22.496424 4.393095 4.2425323
000340 f2 62 d7 41 84 a0 27 40 c1 35 89 3f fc e1 ec 41
       26.923313 2.619172 1.0719529 29.610344
000350 b2 e4 8b 40 21 97 24 41 b5 69 89 41 31 4b 9a 3f
       4.371667 10.286897 17.176615 1.2054197
000360 2f 56 02 40 04 d4 75 41 c3 f9 83 40 e9 61 2e 40
       2.0365102 15.364262 4.1242385 2.724726
000370 a7 d9 78 41 75 8e 68 42 56 63 28 41 95 36 c4 40
       15.553138 58.13912 10.524252 6.131663
000380 1b 1f 4f 42 f2 3c 89 42 63 25 d8 41 62 f4 fa 3e
       51.780376 68.61903 27.018255 0.49014574
000390 ed 76 85 41 21 54 1e 40 b2 d9 60 41 2c a3 60 41
       16.68307 2.4738848 14.053148 14.039837
0003a0 fb 24 d4 40 54 20 9d 40 bb 44 9a 41 27 bf 98 41
       6.629514 4.9101963 19.28356 19.093336
0003b0 b9 d3 a2 40 d7 eb e8 40 ae 59 d1 41 a1 aa 2c 41
       5.088345 7.278789 26.168789 10.791657
0003c0 2b a2 2e 40 c4 f2 84 41 16 80 5d 3f ab 00 89 41
       2.728648 16.618538 0.8652357 17.125326
0003d0 81 09 93 40 de 5e f2 40 e5 1c 3c 41 cc e6 b5 3f
       4.59491 7.5740805 11.757054 1.4211059
0003e0 0b ea a7 40 a7 c6 06 42 a3 51 af 40 f0 9a b5 41
       5.2473197 33.693996 5.4787154 22.700653
0003f0 f6 b6 00 40 e2 f6 24 40 b1 0d 80 41 fe de 6e 40
       2.011167 2.5775685 16.006685 3.7323604

fc2.weight f4 [256, 256]
000000 3e 38 35 3d ec f9 a4 bd 95 c9 7c 3e 12 77 c8 3c
       0.04424309 -0.08055481 0.24686272 0.02447084
000010 11 3c 5e be c3 44 a2 3c cb 6d 9d bd e6 87 58 3e
       -0.21702601 0.019808179 -0.07686957 0.21145591
000020 68 96 98 bd 4b 68 8a 3d 2b 3b 44 3e 14 13 08 3d
       -0.07450563 0.067581736 0.19163196 0.03322132
000030 05 9a b6 3c 70 60 0f 3c 0d 68 88 3d d6 a3 bc 3c
       0.02229024 0.00875102 0.06660471 0.023027342
000040 28 c9 2f bd 77 b2 80 3c 97 c8 b1 bd f1 f7 4b 3d
       -0.042916447 0.015710099 -0.086808376 0.049797002
000050 18 59 fd 3b af 7f b8 3b 9e 96 c5 3d 3e 7b 14 3c
       0.007731568 0.0056304554 0.096478686 0.009062586
000060 43 6d e0 bd aa ac 70 be 51 81 d0 bc 42 99 08 be
       -0.1095834 -0.23503366 -0.025452288 -0.13339713
000070 8d d5 0a be ae 5e 11 3e a9 05 7f bc dd c4 cd bd
       -0.13558026 0.14196274 -0.015565314 -0.10047314
000080 d0 80 1b be 1f ec 3e 3e cc 48 3b bd ef 15 04 3e
       -0.15185857 0.1864476 -0.04572372 0.12898992
000090 8f f1 85 ba 59 f8 ee bb c3 83 47 bd 39 58 f3 be
       -0.0010219085 -0.007292789 -0.048709642 -0.47528246
0000a0 bc bb 35 3e 27 7b 84 bd 97 20 37 be 0c 6d 91 bd
       0.17747396 -0.06468802 -0.17883526 -0.07100877
0000b0 71 f7 b1 bd 88 2d f7 bc b1 9d 2b be 44 5d cc bd
       -0.08689774 -0.030173078 -0.16759373 -0.099787265
0000c0 4a ef 17 3e ce b3 ed 3c c2 d4 63 be fd 97 d5 3d
       0.14837375 0.029016402 -0.2224913 0.1042938
0000d0 14 11 88 3c 2d e0 0a 3e 64 8c 2a be c6 7e d1 bd
       0.016609706 0.13562079 -0.16655117 -0.10229258
0000e0 6f d8 f5 bc 43 c1 4b bd 73 84 3a bd e0 55 6c 3d
       -0.03001043 -0.049744856 -0.04553647 0.057699084
0000f0 40 be 9d bc a0 2b 8a bd ec 03 ed bd 6c cf 15 be
       -0.019255757 -0.06746602 -0.11573014 -0.14629906
000100 d1 4b cc 3c 73 2e af be c6 46 ff bb 32 47 8d bc
       0.024938496 -0.34215125 -0.0077904193 -0.017245863
000110 a0 6d 94 3c c1 e1 ea bd 51 bc 71 bd 24 c8 ce 3d
       0.01811868 -0.114688404 -0.059017483 0.100967675
000120 e0 32 4a 3d 64 3f 12 3d cc 5f bc bd 3e d3 f1 3c
       0.049364924 0.035704985 -0.09197959 0.029519673
000130 ad f9 39 bc f2 e1 de 3c 26 92 24 bd 3d 3d b3 be
       -0.011351031 0.027207348 -0.04017844 -0.3500766
000140 9a 1e 24 3c 53 fe af 3c 01 1d 2b be 68 82 3a be
       0.010017062 0.021483576 -0.16710283 -0.18213809
000150 23 11 cb bd c9 6c 65 3e 6d 59 d2 3c 12 62 8c 3d
       -0.09915378 0.2240478 0.025677407 0.06854643
000160 22 10 be bc f8 e3 20 3d d3 ed b8 bd a8 3c 50 bc
       -0.023201052 0.039279908 -0.09029736 -0.012709774
000170 c6 1f 01 be cf 8d 38 be 1a 45 2e be 06 df 2e be
       -0.12609777 -0.18022846 -0.17018548 -0.17077264
000180 8d dd 90 bd 5d 94 27 bc 5e 2d be bd 73 ef 27 3b
       -0.070735075 -0.010228244 -0.09285997 0.00256249
000190 be c8 a5 bd 3e db 3d bf f3 72 1a 3e b7 7d 74 3c
       -0.08094929 -0.7416266 0.15082912 0.014922551
0001a0 dd 20 8a 3e 76 e0 16 3e 4d 95 a5 bd 54 cb c3 3d
       0.26978198 0.14734063 -0.080851175 0.09560266
0001b0 79 cb fc ba de f0 46 3e 6c c8 9f 3d ae 23 b0 bd
       -0.0019286714 0.19427821 0.07801899 -0.08600555
0001c0 1c c1 87 bd 54 24 7c bc 45 ba 84 be 1e 57 24 bd
       -0.066286296 -0.015389521 -0.25923362 -0.040122144
0001d0 ad ad 34 be 87 b8 80 be 7f a0 a7 bd e2 29 ce bd
       -0.17644377 -0.25140783 -0.08184909 -0.10066582
0001e0 fb ed 94 be b1 65 94 bd 30 84 52 3e a7 bd 9f bd
       -0.29087815 -0.072459586 0.20558238 -0.07799845
0001f0 ff cb 3d bd 54 e5 ee bd e2 6e 9e be 22 78 a5 3d
       -0.046337124 -0.116648346 -0.30943972 0.08079554
000200 af b5 ee 3c 79 77 ff bd 4e 47 92 bc 3d 07 61 bd
       0.029139368 -0.124739595 -0.017856266 -0.054938544
000210 39 b7 5d be da f3 f2 bd 3b 44 c4 bd 60 81 c1 bd
       -0.21651925 -0.11862917 -0.095833264 -0.094485044
000220 85 ea 93 3d f8 32 a7 bd 24 d5 9d bd 85 c7 7a bd
       0.072224654 -0.081640184 -0.07706669 -0.061225433
000230 2e 63 b8 3c e6 ef c4 be 27 46 1a bd 48 bc 02 bd
       0.02250823 -0.38464278 -0.03766456 -0.03191784
000240 69 62 0b be f8 20 f1 3c 91 8c 30 3e fe fb 4e 3d
       -0.13611759 0.029434666 0.17241122 0.050533287
000250 41 97 0c be 72 81 4c 3d 9c 32 bc 3c 7b 13 cb be
       -0.13729574 0.049928136 0.022973351 -0.396633
000260 47 1b 82 be 9a 9a 13 3c 20 7d 3a be c1 80 19 be
       -0.25411436 0.009009028 -0.18211794 -0.14990522
000270 7d ee eb 3d e9 40 cd bc 21 73 42 3e dd 7a 79 3d
       0.115200974 -0.025055366 0.1898923 0.060908187
000280 89 b4 69 3e d6 e4 26 be af ee b6 3d de ce c9 3b
       0.22822775 -0.16298231 0.08932244 0.0061586937
000290 cf 46 4f 3d ff a8 90 be cf b6 56 3d 07 ac 24 be
       0.050604638 -0.28253934 0.052420434 -0.16081248
0002a0 ee a6 ac 3c c3 e4 0c be c9 88 b0 bd b1 e8 43 3d
       0.021075692 -0.1375914 -0.0861984 0.047829334
0002b0 72 07 74 3d 05 81 d5 3d b2 44 98 be 79 81 f7 3d
       0.059577413 0.10424999 -0.2973991 0.12085242
0002c0 7b 43 ed 3d e0 97 c6 3d 9a e7 38 be 5e 76 1f bc
       0.115851365 0.096969366 -0.18057099 -0.009732811
0002d0 be 88 6a bc 75 ed 45 be 3d d4 a1 3d 55 5e 43 bd
       -0.014314828 -0.19328864 0.07901809 -0.047697384
0002e0 7c 0b 22 be f3 a0 47 3d b8 71 96 3c fb 07 b0 bc
       -0.15824693 0.048737478 0.018364772 -0.02148818
0002f0 a4 f8 0f be 85 24 11 bd 5b ac 2f be a0 9e 97 bd
       -0.14059693 -0.03543522 -0.17155592 -0.07403302
000300 32 b9 f3 3d a6 ee 79 3b c5 90 cd 3d a0 cc 9b 3b
       0.119005576 0.003813663 0.10037378 0.004754618
000310 ec 5d 08 bf 49 d8 5c bd cf 13 73 be 0b 04 be 39
       -0.53268313 -0.053917203 -0.23738025 0.00036242636
000320 57 99 70 be cf 46 e7 ba 8b e3 5f 3d 6f 33 e5 bd
       -0.23495995 -0.0017645004 0.05466036 -0.11191451
000330 2d 18 cd 3b 7b 5e 99 bd 6f 2e a5 3d ee df 29 3d
       0.0062589855 -0.07488724 0.08065497 0.04147332
000340 2f 4f d0 bc ad e0 44 be 08 2c 24 be 6d 7f 08 3e
       -0.025428383 -0.19226332 -0.16032422 0.13329859
000350 fd 57 cc bd ca 80 62 be 49 0d 80 3d 95 ec 3c 3d
       -0.0997772 -0.22119442 0.06252534 0.04612406
000360 4d 65 39 bd ed 70 66 3e b3 d2 93 bd 6b 96 c4 3d
       -0.045262624 0.22504015 -0.07217922 0.095990025
000370 60 4c 93 bd 87 73 59 be 64 27 d9 bc cd e8 9b bc
       -0.07192302 -0.21235476 -0.02650804 -0.019031907
000380 e8 bc f3 bd 9f f8 00 be 9f 8e 14 be 68 21 af 3d
       -0.119012654 -0.12594841 -0.1450753 0.085512936
000390 98 b6 fb bc e2 71 28 3d b5 97 45 3e 09 a8 52 3e
       -0.030726716 0.041124232 0.19296153 0.20571913
0003a0 9e aa d8 3d 88 80 cd be b8 64 d2 3c 7d c2 b6 bd
       0.10579418 -0.40137124 0.025682792 -0.089238144
0003b0 a4 91 6e 3e 97 52 58 3e 33 d6 89 be ab 7e 37 bd
       0.23297745 0.21125256 -0.26921234 -0.044798534
0003c0 ca 43 a5 bd ad 92 f5 3d f4 d6 e9 bd e5 8a b0 bc
       -0.0806957 0.11990867 -0.11417952 -0.021550605
0003d0 3d 10 17 bd 88 20 af 3c ff 36 b2 bd 02 74 a8 bd
       -0.03688072 0.021377817 -0.08701896 -0.08225252
0003e0 92 4b 69 bd dd 9d 80 3d 79 35 c2 bc 6e 55 eb 3d
       -0.056956835 0.0628011 -0.023707138 0.11490904
0003f0 07 63 1a 3e 26 a4 27 be 5f 9c 14 3e 06 4b 40 3e
       0.15076838 -0.16371211 0.14512776 0.18778619
