weights/critic.pth (torch_old, 324109 bytes, 9 tensors)

fcs1.weight f4 [256, 48]
000000 b6 3e a1 3d 3c 9a d6 3d 78 86 a5 3c 63 95 dc bd
       0.07873289 0.104786366 0.020205721 -0.10770681
000010 ec c9 8f bd 76 89 62 be 65 88 c3 bc 81 e1 a5 bd
       -0.070209354 -0.2212275 -0.023868749 -0.08099652
000020 2c 39 f3 3c b5 56 d4 3d ed 43 b1 3b 6e 61 ca bd
       0.029690348 0.103681006 0.0054097087 -0.098818645
000030 24 61 3f 3d 88 27 0a 3e 7e 9b 19 3d cc 27 5c bc
       0.0467235 0.13491642 0.037501805 -0.013437223
000040 7f 1c 7f 3c 2b 1c 7e bc 9e ff 83 3d 39 e2 97 3d
       0.015570759 -0.015509645 0.064452395 0.074161954
000050 53 40 0d 3e a7 35 5c 3f ef 29 bd bc 05 27 1b 3e
       0.13794069 0.86019367 -0.023091285 0.15151604
000060 bb 4d ed 3d 56 81 4e 3f 35 a3 1d bd e6 97 03 be
       0.115870915 0.806661 -0.038485724 -0.12850913
000070 ed fc ed 39 43 5f 5e be 6b 6d 6a 3d 94 12 1e bd
       0.00045392607 -0.21716027 0.057233255 -0.038591936
000080 0e b0 b8 3d ca 74 46 3f f2 62 1a 3d c6 ff be 3c
       0.09017955 0.77521956 0.037692018 0.023315322
000090 25 90 5e 3b be 22 5b 3e 4e b5 c9 bc 40 64 c6 bd
       0.0033960429 0.21399972 -0.024622586 -0.0968709
0000a0 9f db 06 3e b0 fa 39 3f ae 2a bd 3c 3d 53 a6 bd
       0.13169716 0.72648144 0.02309164 -0.08121345
0000b0 d9 77 28 bd 38 8a 49 3f 22 ff 2f bd 05 72 72 bd
       -0.04112992 0.7872653 -0.042967923 -0.05919077
0000c0 c0 3f 07 3d 17 d0 5e be 7b 95 c4 3d 38 0c c4 bd
       0.03301978 -0.21759067 0.09598824 -0.09572643
0000d0 49 7f 41 3e 15 b8 bc 3d 46 e7 27 3d df 8d a8 bd
       0.18896212 0.09214798 0.040992044 -0.08230185
0000e0 30 f1 0c 3e 62 73 b3 bd ab b1 19 bd 63 06 29 3e
       0.1376388 -0.08762242 -0.037522953 0.16506343
0000f0 0b ba 6e 3e bb 2f 08 3d da 69 4b 3b 78 64 6a 3e
       0.23313157 0.033248644 0.0031038434 0.22889888
000100 8b 44 1b 3e 49 b7 ee bd ef c8 25 bd 94 8d bc bd
       0.15162866 -0.116560526 -0.04047483 -0.092066914
000110 d6 48 69 3e 7a 25 7c 3e a2 a3 cc bc 29 a5 53 bd
       0.22781691 0.24623671 -0.02498037 -0.05167118
000120 6e 6b bc 3d 7e 26 8e be c8 b7 9e bd 73 f8 db 3c
       0.09200178 -0.27763742 -0.07749897 0.026851868
000130 a2 04 3b be 19 d1 37 3e bf 53 d8 bd bb 4a 17 3c
       -0.18263486 0.17950858 -0.10562848 0.009234126
000140 b6 5c f4 3d 95 c5 8e be a6 20 63 3d 7d d4 9a bd
       0.11931746 -0.27885118 0.055451058 -0.0756006
000150 fa 49 4f be 12 ce 08 3e 3d 19 17 3e 26 c7 89 bd
       -0.20243064 0.1335986 0.14755721 -0.06727438
000160 52 82 3b 3e c9 23 8c be 30 3e 4a 3e 36 16 5f be
       0.18311432 -0.27371052 0.19750285 -0.21785817
000170 a9 ca 47 be 60 b9 5a 3e ba 6f 76 3e f3 d8 78 be
       -0.19510902 0.21359777 0.24066058 -0.2430151
000180 97 eb 48 be 72 a3 8b be a1 dc 30 3e 13 80 f9 3c
       -0.1962112 -0.27273136 0.17271663 0.030456578
000190 3f 5a 15 bd 98 e3 06 be b2 a4 22 3e 9c 4b 2b 3d
       -0.03646302 -0.13172758 0.15883139 0.041820154
0001a0 3b fd 87 bd 9d e0 34 be e3 13 84 3d fc c3 33 be
       -0.06640097 -0.17663808 0.064491056 -0.17555231
0001b0 72 09 8b bd 5b 61 03 bd 30 f9 d5 3d 9d 59 0e be
       -0.06788911 -0.032075267 0.10447919 -0.13901372
0001c0 c6 51 44 3d a2 7d 04 be f4 b3 2c bc 38 c9 fb be
       0.047929548 -0.1293855 -0.010540951 -0.49176955
0001d0 03 ed 15 3d 5b c9 f5 3e 29 f8 16 3d 90 60 03 bf
       0.036602985 0.48005185 0.036857758 -0.5131922
0001e0 b8 84 b7 bd e5 2e a9 be 2d 64 60 3d 06 55 be bc
       -0.08960861 -0.3304359 0.054783035 -0.023233902
0001f0 71 f5 7c bc 28 81 5e be fd 8f a4 3c cc 0c 04 bb
       -0.015439377 -0.21728957 0.02008819 -0.002014923
000200 ed 7e 34 3d 57 e0 3d be a9 9e be 3c ac a5 51 3b
       0.04406636 -0.1854261 0.023269014 0.0031989617
000210 4a b9 88 3d bf a4 ba bc 21 b6 f9 3c 41 40 0c 3c
       0.06675966 -0.022783635 0.030482354 0.008560241
000220 23 b1 6c 3e b5 7d 91 bd 51 11 0a 3d c1 b3 aa bd
       0.23114447 -0.07104055 0.03370792 -0.083350666
000230 a0 1c 65 3c 6a 2c 07 3f e3 f8 45 3d fc a3 3e be
       0.0139838755 0.52802145 0.04833306 -0.18617243
000240 85 87 f0 3c ce e8 eb bd de 8d ae bc 83 4d 30 3e
       0.029361496 -0.11519013 -0.021307882 0.17217068
000250 2d a4 9b 3c b9 f5 20 bd f0 2d b3 3d 79 86 7f 3e
       0.018999184 -0.03929684 0.08748996 0.24953641
000260 e7 aa ae 3d 15 13 67 3d 9f a4 4a be be 21 43 3d
       0.08528691 0.056414682 -0.1978936 0.0476396
000270 57 b3 c8 bb 26 55 14 bd 99 16 0f be e4 e8 bb 3d
       -0.0061248946 -0.036214016 -0.13973464 0.0917528
000280 e5 59 e0 3d 13 f4 76 3d 42 ab 55 3e ab 21 72 3d
       0.10954646 0.06029136 0.20866111 0.05911414
000290 e0 b4 02 3d 80 de 4c 3e 73 e1 50 3e b4 d9 b4 3d
       0.031910777 0.20006752 0.20398502 0.08830586
0002a0 5a b0 45 3c 01 3d d5 3d 91 3b 2c be 93 de 54 3e
       0.012065971 0.10412026 -0.16819598 0.2078803
0002b0 1a bd 94 3c 79 6b a4 3c 21 7c 4a be 6c f0 5e 3e
       0.018156577 0.020070778 -0.19773914 0.21771401
0002c0 dc 8d ac 3d 6c 97 30 3e 28 f6 ab 3d db b8 34 3e
       0.08425495 0.17245263 0.0839656 0.17648642
0002d0 d8 71 e4 3c 09 28 0c 3d 6a 50 e1 3d a5 d4 39 3e
       0.027886316 0.034217868 0.11001666 0.18147524
0002e0 08 6e 1d 3e fa 7c 0b 3e ff 86 b2 bc ea 0a 62 bd
       0.15374005 0.13621894 -0.021792887 -0.05518619
0002f0 81 d4 af bc 13 73 1c 3e 7a 39 13 3c 9d 8a aa bd
       -0.021463634 0.15278272 0.008985871 -0.0832722
000300 d4 74 5a be 89 f1 e9 3e 4b 9e 35 3d d7 88 94 bd
       -0.21333629 0.4569209 0.044340413 -0.07252663
000310 00 05 8d 3d 4e a6 42 be 94 65 a9 bb 33 62 a6 bd
       0.06885719 -0.19008753 -0.0051695798 -0.08124199
000320 f6 41 84 bd 05 de db 3e b9 fb 0d 3d f2 b6 8e bd
       -0.064578936 0.42942825 0.03466389 -0.06968488
000330 ab 2d 56 bc 94 cd 35 3e 12 e5 07 3d b1 04 f6 3c
       -0.0130724115 0.17754203 0.033177443 0.030031534
000340 a6 2e bb bd a9 0c 17 3f 25 83 06 3d 16 36 5f 3e
       -0.09139757 0.5900369 0.032839913 0.21797976
000350 c8 d9 eb bb 29 e3 2e 3f a1 75 43 bd 73 88 83 3e
       -0.0071975924 0.6831537 -0.0477196 0.2569004
000360 76 71 97 bd 68 a9 36 be a1 1b bc bc 6e 86 01 be
       -0.07394688 -0.17838061 -0.022962393 -0.12648937
000370 b1 2f 22 ba 1c 77 2b be 0d 2d 11 bd ff e5 3b be
       -0.0006186916 -0.16744655 -0.035443354 -0.18349455
000380 1f bc 37 bd dc bf 0b be 80 bd 84 bc f5 9a 4d bd
       -0.04485714 -0.13647407 -0.016203642 -0.050196607
000390 76 94 b0 bd f8 f3 a6 3d ee 19 c8 3d f9 53 1c be
       -0.08622067 0.08152002 0.09770571 -0.15266408
0003a0 54 1b 51 bd 1a ff 87 be 4a 93 5e bd 98 6e 4a 3e
       -0.051051453 -0.26561815 -0.054339685 0.1976875
0003b0 2d 9d 91 bb 00 28 3f 3f 9e 43 4e 3c 72 a5 61 3e
       -0.0044437856 0.7467041 0.012589363 0.22035769
0003c0 32 99 e5 3c 22 6e 85 be ef 7b 64 bc 9b 37 e3 bd
       0.02802715 -0.26060587 -0.013945564 -0.1109459
0003d0 a3 29 bc bd e9 c5 70 3e 54 d7 9d bd 88 91 ec bd
       -0.09187629 0.23512997 -0.07707086 -0.115511954
0003e0 d5 93 be 3c df 9b a8 be e8 07 82 3d e4 38 2a bd
       0.023263851 -0.3293142 0.06349164 -0.04155816
0003f0 e8 f8 6b bd ee 42 30 3e dc 87 05 3e c3 a1 e1 bc
       -0.057610422 0.17213032 0.13040107 -0.027542954

fcs1.bias f4 [256]
000000 05 24 de bd 4d c0 8b be 73 52 6e be f7 fa 05 be
       -0.10846714 -0.2729515 -0.2327364 -0.13084017
000010 49 6a 89 bf 66 1f 7d be 96 89 0a 3e 80 a1 85 be
       -1.0735561 -0.24719009 0.13529047 -0.26099777
000020 4f e6 60 be 0c 39 cc bd 29 70 2d bd 69 be fd bd
       -0.21962856 -0.09971818 -0.042343292 -0.123898335
000030 b0 f8 a0 3d 95 1f 93 3d 83 2d 09 be 45 35 0d bf
       0.078599334 0.07183758 -0.13396268 -0.5515941
000040 3c 4d 13 bf d1 ca a7 bb bb fb 70 bd f8 05 f4 bb
       -0.57539725 -0.005120613 -0.05883382 -0.0074470006
000050 5f 2f f6 bd 72 18 43 3e b5 24 85 3e 10 89 e2 bb
       -0.12020754 0.19052294 0.26004568 -0.006913312
000060 19 86 4c bd 8f 02 7a 3d 9f 68 44 bf 3e fc c2 be
       -0.049932573 0.061037596 -0.7672214 -0.3808307
000070 1d 71 6e bd 39 88 de bd 7d 1a 1c be c8 fb 86 be
       -0.058213342 -0.10865826 -0.1524448 -0.2636397
000080 95 72 13 bf f8 86 3e 3e db e3 0f 3d 7d 6c da 3d
       -0.57596713 0.18606174 0.03512941 0.10665224
000090 21 0e 30 3c b2 43 a2 be bc 47 8c bd 93 64 61 be
       0.010745556 -0.31692272 -0.0684962 -0.22011022
0000a0 f5 61 33 be 1f c2 7d be 9a 86 af bd 58 ff 22 3e
       -0.17517836 -0.24781083 -0.08570595 0.15917718
0000b0 a3 ee 52 3d 65 2f a6 be 1d 14 17 be 6a e1 65 bd
       0.051497113 -0.32458034 -0.14753766 -0.056123175
0000c0 98 59 c9 3d 9f 92 ad be 4d ad 4a be ef a7 61 be
       0.09831542 -0.33900926 -0.19792672 -0.22036718
0000d0 39 5b d1 be ae 07 19 bf f4 2f df bd 7c 36 6a bf
       -0.4088991 -0.59777343 -0.10897818 -0.91489387
0000e0 33 0c e8 bd fe 3c 0b bb a6 ea 01 bd 4f c4 e3 bc
       -0.11330452 -0.002124607 -0.03171792 -0.027803568
0000f0 a9 a2 c1 be 23 e9 b8 bb cc f7 c2 bf 3e b0 00 be
       -0.37819412 -0.0056430264 -1.5231872 -0.12567231
000100 71 40 0f be b8 6b bd be d5 f6 aa bd 4a 93 8a be
       -0.13989426 -0.36996245 -0.08347861 -0.27065498
000110 e7 8d 0e be 5d ac 44 3e 2f 01 41 bd ef d2 1a be
       -0.13921319 0.19206376 -0.04712027 -0.15119527
000120 16 51 67 be a3 2e ae bd 51 a7 6d be 08 7f 19 be
       -0.22589526 -0.08504989 -0.23208357 -0.14989865
000130 0d 45 56 be 9d 8a 14 bd ca 15 34 bd cf 7a 2b 3e
       -0.20924778 -0.036265004 -0.043966092 0.16746067
000140 7a 78 72 3c d5 08 07 3b a0 a1 9b be d5 b3 41 bd
       0.014799232 0.002060463 -0.30396748 -0.04729064
000150 dd 7f f2 3c 45 17 e2 3c 8a 60 6b be 52 cd 74 bd
       0.029601986 0.027598986 -0.22986045 -0.05976612
000160 6d af 20 3e 5c 9c 5c 3e f7 27 0a bf 48 fe 10 bd
       0.1569192 0.21544021 -0.5396723 -0.03539875
000170 d5 5d 94 bd d1 f8 62 be 6b ab ae be 34 d2 fe bd
       -0.072444595 -0.22165228 -0.34115157 -0.12442437
000180 e3 3c 2a be 9f 12 cb bd 56 0b 9e bd bc b5 ef 3d
       -0.16624789 -0.09915661 -0.07717006 0.11704585
000190 7e e5 78 3d a0 0a 0a be 96 94 4a 3d 75 87 f0 be
       0.060765736 -0.13480616 0.04945811 -0.46978346
0001a0 de be b2 be e5 cc e8 3d 66 c4 1d bf 01 db 09 be
       -0.34911245 0.113672055 -0.61627805 -0.1346245
0001b0 3c a7 85 bd bc e5 bc bc a8 63 a6 be 30 84 b5 be
       -0.06526038 -0.023058765 -0.32497907 -0.35452414
0001c0 f2 f9 27 be 94 56 ca bd 67 d0 5a be de f2 dd bd
       -0.1640394 -0.09879795 -0.21368562 -0.10837339
0001d0 15 d0 1e 3d cf 4b 90 be 9d 16 50 3d a5 d5 29 be
       0.03877266 -0.28182837 0.050802816 -0.16585405
0001e0 25 00 4b 3c a8 f3 31 be eb 17 56 3d e1 0c 86 be
       0.012390171 -0.17378104 0.052268904 -0.261817
0001f0 55 0f 4f be 74 14 83 be 0d 07 66 be 6e d2 65 bd
       -0.20220692 -0.25601542 -0.22463627 -0.056108885
000200 3c 98 40 be 74 ec 45 be 77 6a 44 bd 49 98 34 3e
       -0.18808073 -0.19328481 -0.047953095 0.17636217
000210 e6 01 03 bf 32 d6 cb bc 6d f8 28 be 20 35 0e bd
       -0.5117477 -0.02488241 -0.16501017 -0.034718633
000220 79 0a 7f 3d 52 f7 d5 be f3 7b c0 bd 2f fb 8b be
       0.062265847 -0.41790253 -0.093986414 -0.27340075
000230 64 8c 21 be 55 ad 59 3d 44 b4 8a 3d ba a3 21 3d
       -0.15776211 0.053143818 0.06772664 0.039462782
000240 dc f1 42 3e d9 bf 1c 3e aa 17 07 be 16 c2 30 be
       0.19037575 0.15307559 -0.13192621 -0.17261538
000250 2b 49 05 be 22 b6 b8 be 3e d2 5a be c6 32 80 be
       -0.13016193 -0.36076456 -0.21369264 -0.25038737
000260 45 41 56 bf 9b 2e 5c be 2e 93 83 bc 9d 50 99 bb
       -0.83693343 -0.21502154 -0.016061392 -0.0046787993
000270 c6 62 9b bd 2c 3c d1 be 6b 8c db bd 8d 99 33 bf
       -0.07587199 -0.4086622 -0.10720142 -0.70156175
000280 b2 f2 c0 3d 9c d0 3b be 2c ac e8 bd 73 d1 87 be
       0.094212905 -0.18341297 -0.11360964 -0.26526985
000290 1b 1c e1 bd 85 d6 e8 bd a8 3a 8e 3c f8 8c f4 bd
       -0.10991689 -0.11369041 0.017361954 -0.1194095
0002a0 1b 49 33 3d 0b 86 b0 3e 30 5c c6 be c2 ae 9a be
       0.04377089 0.34477267 -0.38742208 -0.30211455
0002b0 89 ef 39 3d 73 82 7b bd a0 71 84 be ed ee c0 be
       0.045394454 -0.061403703 -0.2586794 -0.37682286
0002c0 98 2a 2d be 05 9c 36 be 5d 78 0e be e6 49 94 bd
       -0.1691078 -0.17832954 -0.13913102 -0.072406575
0002d0 01 d2 0c bf 82 f7 97 be ef 20 c1 bd 09 9b 74 be
       -0.5500794 -0.2968102 -0.0943011 -0.23887266
0002e0 4e fc 99 bd 7d 57 58 3d 0d 28 e1 be bc 4a a7 be
       -0.075188264 0.05281781 -0.4397587 -0.32674205
0002f0 ed be 9d be 52 dd 9e be 8b 8d 8d be 79 c6 0d bf
       -0.30809727 -0.3102823 -0.2764705 -0.5538097
000300 1a 50 6d be 4e 40 c3 bc a5 18 15 be f2 5b 13 bf
       -0.23175088 -0.023834374 -0.14560182 -0.5756217
000310 df 35 1b bc 43 65 0b bd b9 ef c9 bd e9 98 95 bd
       -0.009473293 -0.034032118 -0.098601766 -0.07304556
000320 0f fd e7 be f8 22 76 be e0 40 19 3d 70 34 fd bc
       -0.45310256 -0.24036777 0.037415385 -0.030908793
000330 95 b0 14 be 51 d7 a6 be 54 77 91 bc 64 6a 91 bc
       -0.14520486 -0.32586148 -0.017757095 -0.017750926
000340 3e 0f 6f be 95 5d 22 be 9f e3 6e bd 32 30 8c 3d
       -0.23345658 -0.15856011 -0.058322545 0.0684513
000350 e8 d7 32 be 46 1c 8d be 6d f0 9c 3d ed 8a 1c be
       -0.17465174 -0.27560633 0.07663045 -0.15287371
000360 a3 8f 42 3d 24 9a 19 bf 7c 44 98 bd a7 a5 65 be
       0.047500264 -0.60000825 -0.07434937 -0.22426473
000370 46 19 2d 3e 7d 30 60 be 72 57 6a be 93 68 28 be
       0.16904172 -0.21893497 -0.2288492 -0.16446142
000380 ef 0d ab 3c fb eb ae bd 01 d7 32 be 92 4b 6a be
       0.020880667 -0.085411035 -0.1746483 -0.2288039
000390 45 bf ba bd 66 84 1a 3d 13 f4 ec be 90 53 71 3e
       -0.09118513 0.03772392 -0.46279964 0.23567033
0003a0 44 60 52 3e 47 ff 77 bc 41 1e a7 be 01 7d 53 3d
       0.20544535 -0.015136546 -0.3264027 0.051632885
0003b0 5b f6 86 3c da b2 ee 3d 8c cc 0e be 5b b5 00 bf
       0.016474893 0.11655207 -0.13945216 -0.50276726
0003c0 b1 93 85 be e0 0a 15 bf c2 22 87 3d 52 59 6d be
       -0.26089242 -0.5821972 0.065984264 -0.23178604
0003d0 72 34 9e bd f7 c3 c8 be 3b 9f 37 be 0d 33 30 be
       -0.07724847 -0.3921201 -0.17931835 -0.17206974
0003e0 41 90 f2 3e eb b9 62 bd 05 3a 2c bd 29 0d 87 3d
       0.47375682 -0.055353086 -0.04204752 0.06594307
0003f0 eb 08 bd be 60 44 c5 be e6 5a 8f be 96 0a 64 bd
       -0.36920866 -0.38528728 -0.27999038 -0.055674158

bn1.weight f4 [256]
000000 da 4c 09 3f f3 38 38 3e 53 d0 3e 3e 26 c8 30 3e
       0.5363289 0.17990474 0.18634157 0.1726385
000010 b5 21 69 3e 0f 27 30 3e ba ba e5 3e 5c 7b 27 3e
       0.22766764 0.172024 0.44869024 0.16355652
000020 f3 bf a4 3e e2 ad 0a 3e 8f 17 5e 3f 87 bc f2 3d
       0.32177696 0.13542894 0.867547 0.11852365
000030 af fb 38 3e e4 d3 a6 3e 6a 19 3d 3e 88 55 dd 3e
       0.1806476 0.32583535 0.18466726 0.43229318
000040 23 37 2a 3e 41 3c 6e 3e 64 2f 6c 3e 31 5c 5b 3e
       0.16622595 0.23265173 0.23064953 0.21421887
000050 f0 8d 4b 3e 9b 49 67 3e c3 fa 04 3f b1 cb 1c 3e
       0.19878364 0.22586672 0.5194513 0.15312077
000060 eb 8f a1 3e 50 c1 e0 3d 90 b6 65 3f 33 83 11 3f
       0.31555113 0.109743714 0.89731693 0.5684082
000070 fd 8e 9c 3d ef 8c 8a 3e 27 7b 87 3e c1 51 ae 3e
       0.0764446 0.2706065 0.26461145 0.34046748
000080 c6 25 03 3f d5 db 92 3e bd 56 01 3e a4 c2 27 3e
       0.5122951 0.28683344 0.12630744 0.16382843
000090 07 a3 49 3c 33 71 ef 3e 6f 05 da 3e 94 2f 84 3e
       0.012306935 0.46766052 0.4258227 0.2581755
0000a0 f5 f3 fc 3e 75 1b a0 3e 53 3b 23 3e 39 4f 5b 3f
       0.49404874 0.31270948 0.15940599 0.8566776
0000b0 68 76 bf 3a 2d 29 48 3e ac 03 9a 3e 2e 49 97 3e
       0.0014607431 0.19546957 0.30080926 0.2954802
0000c0 96 19 06 3e 37 73 61 3e 84 1b a5 3e eb af 09 3e
       0.13095698 0.22016607 0.32247555 0.13446014
0000d0 da e0 dd 3d ea b0 9d 3e b1 b4 0e 3e d7 5f ec 3e
       0.10833903 0.30799037 0.13936116 0.4616687
0000e0 75 0f 69 3e 7f c0 bc 3e a3 84 93 3e 23 d8 ce 3d
       0.22759803 0.36865613 0.2881213 0.100998186
0000f0 4d 87 2f 3e f6 f7 23 3e 30 40 8d 3e bd 22 d4 3e
       0.17141457 0.16012558 0.27588034 0.41432753
000100 fe 64 a1 3e 92 8d d5 3e 08 5e 8c 3e 0f 10 ba 3e
       0.31522363 0.41709572 0.2741549 0.36340377
000110 37 35 19 3e d7 94 09 3e 57 a6 1a be b4 e9 94 3e
       0.14961706 0.13435684 -0.15102516 0.2908455
000120 b3 c3 96 3e 86 16 c7 3e f0 0c 26 3e de 35 d7 3e
       0.29446182 0.38884372 0.16215873 0.42033285
000130 cc 84 85 3e 98 d8 35 3e ae 4a 91 3e a4 1d b1 3e
       0.26077878 0.17758405 0.2837729 0.34592927
000140 7e 87 54 3e 59 fe 2e 3e f3 5a 26 3f 19 0c 70 3e
       0.20754811 0.17089213 0.6498253 0.23442115
000150 70 72 10 3e a8 d2 eb 3d 03 57 4e 3e 5a a3 0d 3e
       0.14106154 0.11514789 0.2015038 0.13831845
000160 90 96 25 3e 2c d0 bd bb b5 c0 d3 3e 08 93 03 3e
       0.16170716 -0.0057926383 0.4135796 0.12849057
000170 9c 13 38 3e ac e8 6e 3e 85 e4 ff 3d 0e 63 84 3e
       0.1797623 0.23330945 0.124947585 0.25856823
000180 4f aa 82 3e 47 85 3b 3e a8 55 2f 3e ba 03 aa 3e
       0.2552056 0.1831256 0.17122519 0.33205968
000190 01 45 63 3e 39 b9 4d 3e 9f 31 a9 3e e1 7c 40 3f
       0.22194292 0.20090188 0.3304567 0.7519055
0001a0 97 50 e2 3e 8f 62 56 3e 45 b9 5c 3e a2 53 fd 3e
       0.4420211 0.20936035 0.2155505 0.4947787
0001b0 03 08 93 3e bb 7f 04 3e 57 80 48 3f f7 2c 7c 3e
       0.2871705 0.1293935 0.7832083 0.24626528
0001c0 07 5b ed 3d 85 49 82 3e d7 58 b2 3e 61 75 27 3e
       0.11589628 0.25446716 0.34833404 0.1635337
0001d0 f2 36 2d 3f f9 cf a6 3e a9 47 0c 3e 16 65 68 3f
       0.67661965 0.32580546 0.13699211 0.90779245
0001e0 aa b5 6b 3e 35 0d 8c 3e 4f 1e 8e 3e f8 a6 e6 3e
       0.23018518 0.27353826 0.277575 0.45049262
0001f0 cb 7e 86 3e ae 57 0a 3e af 0b e2 3e e0 4c d1 3e
       0.2626861 0.1351001 0.4414954 0.40878963
000200 ea d3 28 3f 19 4f af 3e 3f d2 59 3e b9 ef 09 3e
       0.65948355 0.34240034 0.21271609 0.13470353
000210 e5 3c a6 3e 70 da 5f 3e d5 28 82 3e 73 7d 30 3e
       0.32468334 0.21860671 0.25421777 0.17235355
000220 67 d4 93 3e 3f 25 3c 3f b4 75 6a 3e 66 07 12 3f
       0.28872988 0.73494333 0.22896463 0.5704254
000230 48 42 31 3e 1d cf 36 3e e2 8d 52 3e 9a 05 f1 3e
       0.1731044 0.17852445 0.20561936 0.47074586
000240 9c 6c 5b 3e 75 f3 16 3e d9 91 83 3e a4 43 0f 3f
       0.2142815 0.14741309 0.2569721 0.55962586
000250 ee 1f 37 3d e4 d8 85 3e c8 ab b3 3d 6b 57 c2 3d
       0.044708185 0.26142037 0.08772999 0.0948933
000260 50 be 1d 3f b5 b3 17 3d 06 98 c0 3d dc 0c c9 3e
       0.6161852 0.037036616 0.09403996 0.39267623
000270 0d a1 9b 3e c1 e7 ea 3e 44 fd 02 3e 0f 12 d4 3e
       0.3039631 0.4587994 0.12791926 0.41420028
000280 2e 16 96 3e 4a 8b 6d 3e 6d e5 ef 3d e5 1d 0c 3e
       0.29313797 0.23197666 0.11713681 0.13683279
000290 03 28 7a 3e ef 90 21 3e 15 db ad 3e cf 1a c5 3e
       0.24429326 0.15777944 0.3395621 0.38497016
0002a0 4f d6 66 3f fb 1c 6c 3e b6 ad a9 3e f6 8b 6a 3f
       0.9017076 0.2305793 0.33140343 0.91619813
0002b0 51 a4 c5 3e 89 7d 2f 3e 36 63 f1 3d 46 39 a0 3e
       0.38601926 0.17137732 0.11786501 0.31293696
0002c0 7e dd f3 3e b2 bf a2 3d c2 61 4d 3e db 27 53 3e
       0.47629923 0.07946719 0.20056823 0.20620672
0002d0 47 1e 74 3f 8e 80 a7 3d 70 60 a3 3e f5 a9 54 3e
       0.953587 0.08178817 0.31909513 0.20767958
0002e0 b7 9e 6b 3e 81 32 62 3e b6 f9 63 3e df 7a ef 3e
       0.23009764 0.22089578 0.22263226 0.4677343
0002f0 66 0b aa 3d 89 e9 68 3e 67 b0 1c 3e 8e 23 e8 3e
       0.08302955 0.22745337 0.15301667 0.45339626
000300 fd 8b e3 3e ab 7d f9 3d b4 85 07 3e 00 a8 e2 3e
       0.4444274 0.121821724 0.13234597 0.442688
000310 3f c5 9a 3e 96 9c d2 3d e8 f5 1c 3e d6 38 0d 3e
       0.30228612 0.10283773 0.15328181 0.13791212
000320 58 1d 69 3e 08 35 87 3e da 28 3b 3e 7d fa 4f 3f
       0.227651 0.26407647 0.18277302 0.8124159
000330 98 9b cf 3d be 27 1f 3f 88 d8 63 3e 5f e1 45 3d
       0.10137099 0.62170017 0.22250569 0.048310634
000340 1c b2 ee 3e d3 97 82 3e 43 ec c7 3d 0e 3a f9 3d
       0.46620262 0.25506458 0.0976186 0.12169276
000350 83 34 d4 3d cb c7 2e 3e 71 51 49 3e a3 3f af 3e
       0.10361578 0.17068402 0.19659974 0.34228238
000360 77 ff 7a 3e 99 44 39 3f 0c ba 69 3e f4 1e a2 3e
       0.24511515 0.72370297 0.22824878 0.3166424
000370 c7 82 22 3e fa 6d cf ba 11 e3 dc 3e 91 63 38 3d
       0.158702 -0.0015825622 0.43141988 0.04501683
000380 71 6f 02 3e 16 95 49 3e 90 93 ab 3e 70 b9 5f 3d
       0.12737824 0.19685778 0.3351102 0.054620206
000390 8b ac 3d 3e f4 8e 5c 3f d9 5a a9 3e 65 ec 8f 3e
       0.18522851 0.8615563 0.33077124 0.28110042
0003a0 14 5c 19 3e 0a 3e 8d 3e 14 df 78 3e 0b 75 e5 3e
       0.14976531 0.27586395 0.24303848 0.4481586
0003b0 0f f4 b7 3d ba 82 10 3e 91 0c 2e 3e 29 2a 15 3f
       0.08982097 0.14112368 0.16996981 0.58267456
0003c0 34 a3 12 3e a3 13 dd 3e af 9f 5d 3e 88 fe dd bd
       0.1432007 0.43179044 0.21642946 -0.108395636
0003d0 62 d9 41 3e c5 7c d2 3e 36 32 2f 3e a2 24 6e 3e
       0.18930581 0.41110817 0.17108998 0.23256162
0003e0 bd 9b 3c 3f 8b 39 29 3e 58 ad 95 3e 72 45 4e 3e
       0.7367514 0.16525857 0.29233813 0.20143679
0003f0 c3 75 b5 3e 56 d3 2e 3f 63 cd 4e 3d db 08 d3 3e
       0.35441408 0.68291223 0.05048884 0.41217694

bn1.bias f4 [256]
000000 4e 37 f9 3e b7 70 2a 3d aa 9c a7 3d 7f 5c 41 3d
       0.48675007 0.0416114 0.08184178 0.04720735
000010 4a fc 98 3d 67 77 c5 3d 8d f4 1f 3e f9 32 5b 3d
       0.07469995 0.09641915 0.15620632 0.05351541
000020 94 2e cc 3d aa c7 88 3b 8e 75 5d bd 2d 5b ca bc
       0.099698216 0.0041741924 -0.054067187 -0.02470168
000030 69 b2 39 3d 89 87 60 3c bc 91 c9 3d 4f 29 8e bd
       0.04533616 0.013704189 0.0984225 -0.06941473
000040 0c c6 0e 3e 9b 5f 29 3d 2d 49 a3 3d 5c 24 c0 3d
       0.13942736 0.041350942 0.079729415 0.09381935
000050 a0 f1 14 3d 14 c2 51 3d 0e 64 c8 bc 3b ad dc 3c
       0.036363244 0.051210478 -0.024461772 0.026938071
000060 7e ad c5 3d b4 7d 25 bc a2 13 3f 3e cb c4 bd 3d
       0.09652232 -0.010100771 0.18659833 0.09266051
000070 ac 12 06 bc 0a 0e a3 3d 96 f8 9a 3d b9 8c 66 3e
       -0.008183163 0.07961662 0.07566945 0.22514619
000080 06 3a 52 3e 01 ea 8e 3d e3 0b df 3c 8f d3 1c 3d
       0.20529947 0.069782265 0.027227348 0.038287695
000090 b8 ad 2e 38 d7 ba e1 3e cc e9 ac 3e 6a 7d 28 3e
       4.164662e-05 0.4408786 0.33772123 0.16454092
0000a0 65 13 87 3e b0 bc 17 3e d0 74 aa 3d 33 c1 9e 3e
       0.26381984 0.14818072 0.083230615 0.31006774
0000b0 d6 d2 ff bb 83 a6 e4 3c 2e 00 5a 3e 3c 19 93 3d
       -0.007807116 0.02791143 0.21289131 0.071825475
0000c0 ff fa b0 3c d3 76 1c 3d 5a 65 68 3e d6 64 12 3d
       0.02160406 0.038199257 0.22694913 0.035740696
0000d0 46 bb 92 bc b4 95 65 3d 55 7e b1 bb ed bb 07 3e
       -0.017911565 0.05605097 -0.0054166713 0.13255282
0000e0 93 cf 4b 3d d8 0d 1a 3e 40 10 9c 3d 60 04 12 3b
       0.049758505 0.15044343 0.07620287 0.002228044
0000f0 0c d0 98 3d 02 86 1a ba d1 5e 14 3e 21 91 64 3e
       0.07461557 -0.00058946025 0.14489295 0.22320987
000100 9b 06 7e 3d 05 63 18 3e f1 f0 0f 3e 59 17 18 3e
       0.06201802 0.14881523 0.14056756 0.14852656
000110 33 58 8e 3d 61 e9 c6 3b ce 76 0b be 21 35 8a 3d
       0.069504164 0.0060703014 -0.13619539 0.06748415
000120 13 8e 65 3e 8c 0c 8b 3d 5e 5d 4b 3d 9e 18 18 3e
       0.22417478 0.067895025 0.04964959 0.1485314
000130 da 0a d2 3d 83 de 0f 3d 25 97 34 3d 69 97 5c 3e
       0.10255976 0.035124313 0.044089455 0.21542133
000140 9e 44 9e 3d 93 47 2d 3d 41 f3 1d 3e 13 4b 82 3e
       0.077279314 0.042304587 0.15424825 0.25447902
000150 d9 08 83 3c 60 60 93 3e 62 12 4f 3d 72 c2 0b bd
       0.01599543 0.28784466 0.05055464 -0.034120984
000160 33 dc 7e 3c bb 78 30 be 2f be d3 3d ae 5a 9f 3c
       0.015555429 -0.17233555 0.10339009 0.01945242
000170 64 2b 56 bc 4d 4d 9f 3d 07 b0 f7 3b 9f 65 82 3d
       -0.013071869 0.07778416 0.007558826 0.06367039
000180 8e fa 40 3e 4f ea c4 3d 5c 8f b0 3c 83 0d ab 3d
       0.18845579 0.09615003 0.021552734 0.083521865
000190 ae 70 62 3d 34 f6 21 bd 3f 55 17 3e 5e 5e 33 bd
       0.05528324 -0.03954144 0.14778613 -0.043791167
0001a0 63 12 ae 3e 7f 69 a9 3d 88 da 91 3e 74 0b 26 3e
       0.33998403 0.08272075 0.2848704 0.16215307
0001b0 12 d7 b8 3d d7 b5 8f 3c 0f 12 6c 3c 60 1d 00 3e
       0.090253964 0.017542763 0.014408602 0.12511206
0001c0 95 48 ab bd 58 56 ae 3d 0f d5 35 3e 0d 5b 1d 3c
       -0.08363453 0.085125625 0.17757057 0.009604228
0001d0 83 05 26 bd 4b 70 57 bd 32 92 39 3d 52 90 46 3e
       -0.0405326 -0.052597325 0.04530544 0.19390991
0001e0 6a e3 90 3d ce da 34 3d af af 82 3d bf 2c a9 bc
       0.07074626 0.04415398 0.06381165 -0.02065122
0001f0 87 74 87 3d 90 5f e0 3c 6c e6 28 3e c6 b2 33 3e
       0.06614023 0.027389318 0.16494149 0.17548665
000200 c1 ff b1 3e 32 97 be 3d 6f 39 bf 3d a2 c2 85 bd
       0.34765437 0.09306182 0.093371265 -0.06531264
000210 c0 dc 89 bb e8 93 84 3d 18 50 24 3e d6 2d 79 bb
       -0.0042072237 0.064735234 0.16046178 -0.0038021705
000220 90 b3 1a 3e 6c d9 17 3e 81 7c 88 3d 3c 60 8e 3e
       0.1510756 0.14829034 0.06664372 0.27807796
000230 d8 25 58 3d 29 62 87 3d 0d a3 a7 3d 77 3e fe 3d
       0.052770466 0.066105194 0.08185396 0.12414258
000240 07 e9 6e 3d cd ff 99 3b 91 f7 87 3e 74 73 0b 3d
       0.0583277 0.0046996833 0.26556066 0.03404565
000250 c7 a9 d9 39 d4 94 87 3e 67 3d 83 3c 5c db fb be
       0.0004151596 0.26480734 0.01602049 -0.49190795
000260 e3 6a e5 bb 7c 72 1d 3f 50 2a 0a 3f 0d 89 27 3e
       -0.0070012673 0.61502814 0.53970814 0.16360874
000270 bb ca 0a 3e 52 35 25 3e 45 42 94 3e ad f7 c5 3d
       0.13553898 0.16133621 0.2895681 0.09666381
000280 59 cc 8b 3d 08 b4 de 3d e9 33 3c 3d ae 61 59 3b
       0.068260856 0.10874182 0.045947943 0.0033169794
000290 78 6d a5 3d e4 f0 6d 3e be 0d 5f 3e d4 e1 10 3e
       0.0807752 0.23236424 0.21782586 0.14148647
0002a0 49 16 ef 3e 4e f9 cb 3d 24 6d 1a 3f 8d 7e 14 bc
       0.4669669 0.099596605 0.60322785 -0.009063375
0002b0 2d 35 c5 3d 2b de a1 3e 01 5e de 3b 5c 8c 6c 3e
       0.09629283 0.31614813 0.0067861085 0.23100418
0002c0 cf bd 28 3e e5 94 19 be ee 8b 9f 3d 0b fd ab 3a
       0.16478656 -0.14998205 0.07790361 0.0013121677
0002d0 2f 33 20 3e b4 68 ca bc e3 e6 15 3e 0a d8 16 3e
       0.15644525 -0.02470813 0.14638858 0.1473085
0002e0 06 06 1c 3e 7a 65 b6 3d bc 70 f4 3d c4 92 ca 3e
       0.15236673 0.08906074 0.11935565 0.39565098
0002f0 34 58 f0 bd 59 a7 4e 3d 7c b6 70 3c 5e b8 d4 3d
       -0.117355734 0.050452564 0.014691945 0.10386728
000300 d6 57 38 3e ee 65 2f 3d 6e 73 1f 3c 07 1c 5f 3e
       0.18002257 0.042821817 0.00973211 0.21788035
000310 74 9a 13 3e 40 dd 99 be 2b 1d 4a 3d 83 ce 41 3c
       0.14414388 -0.30051613 0.049344223 0.011829021
000320 f4 20 b8 3c 5e a9 0f 3e eb 57 24 3d 52 b2 95 3e
       0.02247665 0.14029452 0.040122908 0.2923761
000330 6a 20 ac bd 92 c0 77 3e ab fa 18 3d a3 21 90 be
       -0.0840462 0.24194553 0.03734843 -0.28150663
000340 78 35 ab 3e 2d 57 2c 3e 6d 6a a9 bc 58 84 61 bd
       0.3343923 0.1683013 -0.02068063 -0.055057853
000350 c3 b5 b8 3c 8c 97 b5 3c 54 38 7c bd c3 7a 14 3e
       0.022547608 0.02216699 -0.061577156 0.14499955
000360 60 4a 8f 3d 1a cd bf 3d 5d 14 1f 3e b2 c6 aa 3d
       0.06996608 0.09365292 0.15535112 0.083386794
000370 84 41 c6 3c 30 9a 88 bd 1d 1e 01 3c af 33 b4 3e
       0.024201162 -0.06670034 0.007880715 0.3519568
000380 52 51 9a 3d 78 91 41 3d 56 6f 09 3e 4e 8b 9e bd
       0.07535042 0.04725787 0.13421378 -0.07741414
000390 65 8a ef 3c 88 10 55 3e 66 14 1d be bb ab c0 3d
       0.029240796 0.20807087 -0.15339813 0.09407755
0003a0 db 2e 02 3c 57 ed 89 3d fb f4 51 3d ed 75 ef 3d
       0.0079457415 0.06734722 0.051259022 0.116924144
0003b0 5f 11 8a 3c bc 1d ff 3c a2 d9 d6 3c b4 69 a2 3d
       0.016853986 0.031142108 0.026226822 0.079303175
0003c0 09 dd 09 bd 11 77 6d 3e 50 86 34 3d 39 13 f1 3d
       -0.03365806 0.23189951 0.044073403 0.117712446
0003d0 e9 1e 25 3d ad ae a0 3e a7 d1 1a 3c e7 6e f8 3d
       0.04031268 0.31383267 0.009449399 0.12130528
0003e0 e1 d5 b4 3d 48 88 b8 3c dc 96 cb 3d ef e5 1a 3d
       0.08829857 0.022525921 0.099408835 0.037816938
0003f0 8b e2 a3 3d 0d 2c 91 3e 64 98 e2 bc c5 36 18 3e
       0.08002194 0.2835392 -0.027660556 0.14864643

bn1.running_mean f4 [256]
000000 cd 83 15 40 df b6 45 40 f7 bf c2 40 12 ec 04 40
       2.3361695 3.0892866 6.085933 2.0769086
000010 07 c0 04 41 e6 4b 9f 40 8a ec 67 3f ab a1 3f 40
       8.296882 4.978015 0.90595305 2.9942424
000020 0c bf ca 3f 96 84 be 3f 25 93 88 41 5f 08 31 3f
       1.5839553 1.4884212 17.071848 0.691534
000030 96 01 05 3f fa 0f 10 3f cc eb 42 40 1e c5 60 3f
       0.51955545 0.5627438 3.045642 0.87800777
000040 26 ba e8 40 3c 55 98 3f bc 39 ff 3e 6d e1 69 3f
       7.272723 1.1901011 0.49848735 0.913596
000050 ae 14 36 3f d9 95 22 3e a5 23 81 3e eb ec ba 3d
       0.71125305 0.15877475 0.25222507 0.0912722
000060 44 09 02 40 9b 81 23 3f 31 60 8e 3f 2c 28 99 3f
       2.0318155 0.6386964 1.1123105 1.1965384
000070 81 f5 a4 3f 4f 8b f6 3f da 76 58 3f 65 ed 7c 40
       1.2887422 1.9261264 0.84556353 3.9519894
000080 1a e9 73 3f 43 f7 37 3f 7a 8d aa 3e 91 64 eb 3d
       0.9527756 0.71861666 0.33311063 0.11493791
000090 db fd 0c 40 58 c2 be 40 a3 21 96 40 b7 ba e9 40
       2.202994 5.9612236 4.691606 7.3040423
0000a0 13 2c 45 3f 2b da dc 3f 82 09 24 40 e9 b2 07 3f
       0.77020377 1.725408 2.5630803 0.5300737
0000b0 5e f1 41 41 a4 dc 86 40 0e ec 4b 40 9e 9c 0b 40
       12.121428 4.2144337 3.1862826 2.1814342
0000c0 09 5a b3 3f 49 67 59 40 17 64 88 40 ff 8c 04 40
       1.4011852 3.396929 4.262218 2.0711057
0000d0 93 14 cb 40 8e 9e 3a 40 db 48 4d 3f 5d 4f e6 41
       6.3462615 2.9159274 0.80189294 28.788752
0000e0 79 cd a3 3e ff 65 6b 3f 4a 54 ff 3e 70 a4 16 3f
       0.319927 0.9195251 0.49868995 0.5884466
0000f0 13 7b 04 40 60 e8 03 40 36 db 51 41 c0 16 fd 3f
       2.0700119 2.061058 13.116018 1.9772568
000100 7b f0 8f 3f 94 d3 4c 3f 24 2a d3 3e 32 a8 d6 3f
       1.1245264 0.8001034 0.41243088 1.6770079
000110 04 87 28 3f c7 0b a1 3e 72 16 04 41 5b 29 22 3f
       0.6583102 0.31454298 8.25548 0.63344353
000120 bc 0b 20 40 81 ee a5 40 b8 ec d4 3f 1d 12 81 3f
       2.5007162 5.1853642 1.6634741 1.0083653
000130 b4 f6 0f 3e 3c 47 90 3f 32 e8 4f 3f 43 a7 76 40
       0.14058954 1.1271739 0.81213677 3.8539588
000140 e4 84 8e 3f a2 5f be 3e 2c f2 e0 3f a4 ee 9d 40
       1.1134305 0.37182337 1.7573905 4.935381
000150 7d ac 14 40 03 93 40 40 05 70 d6 3e 92 c0 fe 3e
       2.3230278 3.008973 0.4188234 0.49756294
000160 14 7b 86 3f 6c 49 4b 41 5e fb 70 40 5f 23 32 3f
       1.050631 12.705425 3.7653422 0.6958522
000170 57 1b a2 3f ff 0b 95 3f 99 65 fc 3f 5e d8 9b 3f
       1.2664593 1.1644286 1.9718505 1.2175405
000180 19 28 49 40 bf 5e 44 3f 7e 90 9a 3e e7 46 93 41
       3.1430724 0.7670707 0.30188364 18.40962
000190 d9 db e2 3f d6 ad 3e 40 03 33 46 3f a8 8c 27 41
       1.7723342 2.97936 0.7742159 10.47184
0001a0 fb 74 3c 40 86 1a a3 3e c2 ed 72 41 47 71 ea 3e
       2.94464 0.31856173 15.183046 0.4578955
0001b0 d4 d5 66 40 f0 f9 14 3f 15 6c 86 41 b7 e8 a3 40
       3.606801 0.58193874 16.802774 5.1221576
0001c0 5e 20 27 40 23 e9 73 3f f1 11 9a 3f 54 a8 1b 40
       2.6113505 0.95277613 1.2036725 2.432149
0001d0 4d dc 84 41 c6 a1 6b 3f 4e 3c 43 40 4f 67 85 3d
       16.607569 0.9204372 3.0505557 0.06513845
0001e0 95 7f c4 3f 7f 27 f9 3e db 70 6d 3e f0 fe b6 3e
       1.5351435 0.48662946 0.23187582 0.35741377
0001f0 13 92 95 3f 86 08 98 40 04 6e 98 41 95 14 3d 3f
       1.1685203 4.7510405 19.053719 0.7385953
000200 42 9d 8b 3f cf 94 c7 3e 8a a6 1a 40 60 95 b6 3f
       1.0907366 0.3898072 2.4164147 1.4264336
000210 3b 8a c4 3f fd cf 41 3f ca 2f d3 3f b0 81 db 40
       1.5354685 0.7570799 1.6498959 6.859581
000220 bd f8 a4 3f 78 8e 8e 3e 70 1b 3b 3f 61 b1 1d 3f
       1.2888409 0.2784307 0.7308874 0.61598784
000230 7d d7 b1 3e 92 3f db 3e 49 60 af 3f 22 d2 c5 3d
       0.34734717 0.42821938 1.3701259 0.0965922
000240 64 06 6a 3e 1a c7 38 3f fe f3 91 3d b5 4d 20 3f
       0.22854 0.72178805 0.07126616 0.6261857
000250 b1 c8 54 40 98 4e 6d 40 02 37 58 3e 44 63 26 40
       3.3247492 3.707922 0.21114734 2.5998087
000260 eb ee 3e 3f 6e d6 45 3f dc 1e 42 41 96 84 67 3f
       0.7458331 0.7728032 12.132534 0.90436685
000270 be 59 10 40 79 b3 60 3f 88 40 e6 3f a1 ac 6b 3f
       2.2554774 0.87773854 1.7988443 0.92060286
000280 6f 6e b5 3e 8b 86 0a 40 bc 94 fc 3f 17 79 15 3f
       0.35435817 2.1644619 1.973289 0.58387893
000290 95 17 bc 3f 01 65 36 3f 2c cf 4e 40 a2 4b d2 3f
       1.4694697 0.7124787 3.2313948 1.6429331
0002a0 db 26 27 3f 46 fc d4 3c 02 d2 d2 40 45 5a 86 3f
       0.65293664 0.0259992 6.5881357 1.0496298
0002b0 b0 bd 11 3f f8 a3 77 3f a4 7b 47 3f 12 6e 96 3e
       0.56930065 0.9673457 0.77923036 0.29380852
0002c0 ca e6 75 3f b0 e8 2d 40 1c 95 c5 3f ff 9c b6 3f
       0.9605528 2.717327 1.543613 1.4266661
0002d0 45 35 c7 3e af b3 3f 3e 84 eb 07 3f 75 06 1c 41
       0.3890783 0.18720888 0.53093743 9.751576
0002e0 3a 16 9d 3f f4 0d ac 3f 50 1e 35 40 2f a1 4d 40
       1.2272408 1.3441758 2.8299751 3.2129629
0002f0 7b 21 50 41 cd 2d 8c 3f e3 a2 e1 3f 75 ca 33 3f
       13.008174 1.0951477 1.7627834 0.702308
000300 92 ee ed 3e 57 f4 3d 3e 19 4e dd 3f a5 15 5a 3f
       0.46471077 0.1855024 1.7289459 0.85189277
000310 32 c2 39 3f 04 1b 23 40 ab ac c1 3f 21 d2 24 3f
       0.72561944 2.548524 1.5130819 0.6438313
000320 df a7 0d 40 eb c9 62 3f 9b cf 90 3e cd 4e c4 3f
       2.213371 0.8858935 0.2828339 1.5336548
000330 39 da 90 3f 49 d5 c8 3e 52 a4 3c 3f 3c cf 23 40
       1.1316596 0.39225224 0.7368823 2.5595236
000340 57 66 85 40 83 c8 d4 3f 3c c8 e3 3e af 67 5a 3f
       4.1687427 1.6623691 0.44488704 0.8531446
000350 db 04 c4 40 d1 b9 b4 3f 9b d9 74 3f e6 63 fa 3e
       6.1255927 1.4119207 0.9564454 0.4890434
000360 8a 05 07 3f e6 18 ae 3e bc 32 dd 40 45 ef cf 3f
       0.52742827 0.3400337 6.912443 1.6244894
000370 df c0 a3 3f a7 74 67 3c f4 a1 90 41 37 e5 29 41
       1.2793235 0.014126933 18.079079 10.618461
000380 5d bd 00 41 2a c3 62 3f 8e 63 1c 40 3b 7d 40 3f
       8.046231 0.88579047 2.4435763 0.75191087
000390 4b b0 f5 3f 55 3c 59 3d 1b 50 19 40 50 ff ef 3d
       1.9194425 0.053036053 2.3955142 0.11718619
0003a0 49 d4 b7 3f e5 12 5c 3e 20 f8 80 3f 0c e9 c3 3e
       1.4361659 0.21491583 1.0075722 0.38263738
0003b0 fd 86 f1 3e 83 90 0b 3e 76 ee e8 3e 4b 47 21 3f
       0.471733 0.13629346 0.4549443 0.6299941
0003c0 24 99 44 3f e1 78 38 40 71 07 12 3e 1a 3d 8d 3f
       0.76796174 2.8823779 0.14260651 1.1034272
0003d0 41 b4 d0 3e c4 46 1d 40 64 65 71 40 c9 bc 37 3f
       0.40762523 2.4574442 3.7718134 0.7177244
0003e0 4c 64 5b 40 06 78 1c 3e 89 a0 98 3e 87 64 e1 3e
       3.4279966 0.1528016 0.2980998 0.4402201
0003f0 66 17 68 40 7d 7c 0d 40 35 fe b3 3f a2 f3 ed 3e
       3.6264281 2.2107232 1.4061953 0.4647494

bn1.running_var f4 [256]
000000 f5 e5 c0 40 16 4a 32 42 06 17 62 42 d1 b9 85 41
       6.028071 44.57235 56.522484 16.71573
000010 a0 14 72 41 3d 12 58 42 00 b5 18 41 46 26 25 42
       15.130035 54.01781 9.544189 41.287376
000020 e1 50 78 41 d5 1e 2a 41 23 30 01 44 58 4d 9a 40
       15.519746 10.632527 516.75214 4.8219414
000030 08 e4 a3 40 a2 da 70 40 cb e6 d2 41 c3 72 5e 40
       5.121586 3.7633443 26.362692 3.4757545
000040 20 93 a7 41 e9 74 54 41 63 69 93 40 69 06 a0 40
       20.946838 13.2785425 4.6066146 5.0007825
000050 00 ce 85 40 ef 9f 66 3f 2f 71 7a 3f 0c be 0b 3f
       4.1813965 0.9008779 0.97828954 0.54586864
000060 f5 1a 73 41 f6 30 ac 40 67 44 11 40 46 34 14 40
       15.194081 5.3809767 2.2698 2.3156905
000070 b0 87 6e 41 26 55 c0 41 ed 5e 01 41 80 e4 e2 41
       14.908127 24.041576 8.085675 28.361572
000080 4a 40 d1 3f 2d b7 a6 40 fe a8 32 40 35 b9 50 3f
       1.6347744 5.2098603 2.7915645 0.81532604
000090 02 c2 c2 41 31 39 3c 41 71 aa 44 41 e5 5c ee 41
       24.34473 11.763963 12.291612 29.795359
0000a0 b1 0c fb 3f ea b7 54 41 f9 e4 8b 41 95 63 28 40
       1.9613248 13.294901 17.486803 2.631078
0000b0 a2 bb 6c 42 a5 f0 cb 41 3f 2c 39 42 9f 1c e2 41
       59.183235 25.492502 46.29321 28.263975
0000c0 41 81 56 41 02 eb 9c 41 60 34 b5 41 c2 ab 84 41
       13.406556 19.61475 22.650574 16.583866
0000d0 6c a1 26 42 83 ad 5d 41 5e b8 c9 40 b0 08 29 42
       41.65764 13.854861 6.3037558 42.258484
0000e0 c6 e1 05 40 ba 5c a7 40 07 a9 5c 40 9e 8c a5 40
       2.091905 5.230069 3.4478166 5.173415
0000f0 fb 26 2f 41 00 25 55 41 2a 17 f5 41 65 cc 13 41
       10.947017 13.321533 30.63631 9.237401
000100 b8 86 3e 41 02 b9 97 40 fc 6e 87 40 f9 55 85 41
       11.90789 4.741334 4.232298 16.666979
000110 3e 1a b2 40 44 2b ce 3f 52 b1 72 42 b6 f0 8c 40
       5.5657034 1.6106954 60.673164 4.4043837
000120 7c 0f 9c 41 cf 15 c4 40 a3 b5 0a 41 b3 c2 dd 40
       19.50756 6.127662 8.669345 6.930017
000130 9a 89 68 3f f1 eb 01 41 ec 53 76 40 9f d4 ef 41
       0.90834963 8.120103 3.8488722 29.978819
000140 3f 98 64 41 6a a9 33 40 15 ec bf 40 82 f3 c4 41
       14.287169 2.8072152 5.9975686 24.6189
000150 a4 e9 ca 41 46 65 12 42 91 ad 16 40 01 dd 70 40
       25.364082 36.5989 2.3543437 3.763489
000160 e4 cd 16 41 a7 47 aa 42 2b 25 3c 41 e1 b6 8b 40
       9.425266 85.139946 11.759074 4.366074
000170 ab 02 62 41 f9 14 21 41 07 a4 59 41 18 20 9e 41
       14.125651 10.06762 13.602546 19.76567
000180 a7 83 b4 41 d7 22 d0 40 ae 6c f4 3f 29 53 13 44
       22.564283 6.504253 1.9095666 589.2994
000190 f3 58 77 41 e5 2e 9f 41 af 08 cc 40 c8 42 44 43
       15.459216 19.897898 6.37606 196.26086
0001a0 8c da 40 41 23 0e 00 40 6a 48 53 42 09 8a 26 40
       12.053356 2.0008628 52.820717 2.602175
0001b0 aa 3e 19 42 53 23 a2 40 18 89 de 43 0c 69 53 42
       38.311195 5.066812 445.07104 52.852585
0001c0 03 20 ca 41 6a 45 31 41 91 c1 60 40 0d 2d e9 40
       25.26563 11.079447 3.5118144 7.2867494
0001d0 9f eb d7 43 65 5a f9 40 99 19 88 41 4e 0f ad 3e
       431.8408 7.7922845 17.012499 0.3380074
0001e0 e7 5a a8 41 44 85 84 40 46 80 d6 3f a9 05 fd 3e
       21.044386 4.141268 1.6757896 0.4941838
0001f0 96 ee 5a 41 17 98 68 42 56 db 11 44 19 98 ee 40
       13.6832485 58.148525 583.4271 7.4560666
000200 e5 99 d9 40 18 8d 2e 40 8a dd 23 42 0e 9c 16 41
       6.800036 2.7273617 40.966347 9.413099
000210 7e 45 f1 40 f4 48 f3 40 fc 06 99 41 90 09 f0 41
       7.539733 7.6026554 19.12841 30.00467
000220 48 cf 05 41 ee d8 da 3f 91 da 65 40 f7 f5 1e 40
       8.363106 1.7097452 3.5914652 2.4837625
000230 ae b8 1f 40 5b f1 2e 40 fb ad 5e 41 ca 18 ff 3e
       2.495647 2.7334812 13.917476 0.498236
000240 2d 0d 8d 3f 97 e2 a7 40 43 27 d2 3e 63 4e 12 40
       1.1019646 5.24641 0.4104558 2.2860343
000250 7f e5 d0 41 97 b2 b9 41 9e a5 a8 3f 3d 4d cc 41
       26.112059 23.212202 1.3175542 25.537714
000260 90 cc 88 3f 4b 46 e5 40 3e 84 86 42 20 a8 c1 40
       1.0687428 7.1648307 67.258286 6.051773
000270 58 2f e0 41 3a 5f 69 40 26 8b 96 41 9c 7f b7 40
       28.023117 3.6464372 18.817944 5.7343273
000280 ad f9 20 40 eb ee ef 41 58 d8 96 41 75 df 93 40
       2.515239 29.99166 18.855637 4.6210275
000290 6c c0 86 41 1f 5f eb 40 09 02 0e 41 03 ab ad 41
       16.843956 7.3553615 8.875497 21.708502
0002a0 75 6e ab 3f 3d 3d a2 3d 38 e4 9b 41 54 75 d7 3f
       1.3393084 0.079218365 19.486435 1.6832681
0002b0 b6 51 73 40 c7 8a 3b 41 39 7d 96 40 35 05 b9 3f
       3.8018622 11.721381 4.702786 1.4454714
0002c0 22 2e 30 41 aa fc cd 41 e3 84 39 41 15 d5 ff 40
       11.011263 25.748371 11.594943 7.994761
0002d0 aa 4a e3 3f 1c 4b 49 3f 12 43 9a 40 78 3d ea 41
       1.7757161 0.7863023 4.8206873 29.280014
0002e0 d5 92 30 41 d4 9b 09 41 59 d5 3e 41 56 19 2b 41
       11.035848 8.600544 11.927087 10.693686
0002f0 42 ce 1e 42 1d 18 50 41 06 28 b6 41 16 86 9a 3f
       39.701424 13.005887 22.769543 1.207217
000300 84 b5 ea 3f fd 46 91 3f d0 00 54 41 ea de 3e 40
       1.8336644 1.1349789 13.250198 2.9823556
000310 66 0b 30 40 5d a3 c6 41 9d bf 72 41 b4 ca 87 40
       2.7506957 24.829767 15.171781 4.243494
000320 08 b8 69 41 8c e0 1b 41 81 54 ff 3f 96 b0 0f 40
       14.6074295 9.742321 1.9947664 2.245153
000330 e1 03 01 41 1e b0 ce 3f c1 c1 95 40 a5 74 ec 41
       8.063447 1.6147497 4.6799016 29.556955
000340 19 f5 9b 41 50 25 d6 40 76 a3 19 40 16 d0 88 40
       19.494677 6.6920547 2.4006019 4.275401
000350 7c f0 d2 41 d8 e6 25 41 fe 9e 95 40 90 85 7a 40
       26.367424 10.368858 4.675658 3.914402
000360 c4 c2 49 40 76 15 bb 3f 0c 49 4f 42 e5 48 0c 41
       3.1525126 1.4615924 51.821335 8.7677965
000370 ce 80 e1 40 35 28 c5 3d 1a e9 f8 43 e1 95 83 42
       7.046973 0.096268095 497.8211 65.79273
000380 e1 0b 9f 42 38 79 ab 40 39 19 cf 41 4d 07 d4 40
       79.5232 5.358547 25.887316 6.625891
000390 fe 1e 44 41 c0 10 6f 3e 60 40 27 41 d5 5e bd 3e
       12.257566 0.23346233 10.453217 0.36986414
0003a0 9b 83 73 41 d0 c4 89 3f 4f f1 29 41 02 89 d9 3f
       15.21963 1.0763187 10.621413 1.6994936
0003b0 9c df 56 40 ed ba 73 3f e8 68 5c 40 8a 17 a2 3f
       3.357398 0.952071 3.443903 1.2663434
0003c0 c7 af c1 40 cc 61 4f 41 85 4c 56 3f dc 52 1a 41
       6.052707 12.961376 0.8371051 9.645229
0003d0 11 26 da 3f 2a 89 33 41 06 40 e9 41 99 09 0a 40
       1.7042867 11.220987 29.156261 2.1568358
0003e0 c9 88 4b 40 7c 89 88 3f 0f 96 a6 3f c8 51 62 40
       3.1802237 1.0666957 1.3014544 3.5362415
0003f0 c8 1d 61 41 27 bc 03 41 83 71 4e 41 d2 7a 0b 40
       14.069771 8.233436 12.902713 2.1793714

fc2.weight f4 [256, 260]
000000 a1 1a ad 3c 57 3f 3b bd 39 41 d3 bd a8 0e 1d be
       0.021130862 -0.045714702 -0.103151746 -0.15337622
000010 0a f7 1a 3e 8e 31 12 3e 5d e8 e1 3c f8 71 f5 bc
       0.151333 0.14276716 0.02757662 -0.029961571
000020 6a fb 66 3d 32 03 8f be f6 37 84 3d 5f 24 01 3c
       0.05639211 -0.27932125 0.06455986 0.007882207
000030 4e f8 6f bc ee 69 57 bd e5 ef 34 be cb 5a de 3c
       -0.014646603 -0.052591257 -0.17669638 0.027142903
000040 91 66 09 3e c3 21 dd bc e1 6b 8a be 3d 40 36 bc
       0.13418032 -0.026993638 -0.2703543 -0.011123714
000050 6d 14 ce 3d da fb 0a 3e 93 a8 c8 be aa b2 b0 3a
       0.1006249 0.13572636 -0.39191112 0.001348098
000060 0d 2b 2a bd 8a a7 7e bc 4b 3b d9 3d ac 91 b1 3d
       -0.041544963 -0.015542874 0.10607012 0.08670363
000070 bb ef a5 3c 2f 38 cc bc 96 a4 2c 3d 43 ab cd bd
       0.020255914 -0.024929134 0.04214915 -0.10042431
000080 3a aa 39 3d 6e 58 78 bc a6 73 0f bd 51 30 ab 3d
       0.045328356 -0.015157802 -0.0350224 0.08358825
000090 6b a3 20 bc 72 b5 48 bd 7a a6 e3 bc 51 49 da 3d
       -0.009804587 -0.049001165 -0.027789343 0.10658515
0000a0 c3 59 78 be a3 61 7d 3c b7 41 37 3e cb 0f 7e 3d
       -0.24252991 0.015465173 0.17896162 0.06202678
0000b0 8e 7a 45 3d f9 16 aa bd 6d 65 a9 be 79 bf 0e 3e
       0.04821258 -0.08305163 -0.33085194 0.13940229
0000c0 6c d6 c6 3d 0a 10 90 bc 7f 87 3f 3e 7f 1f 82 bc
       0.097088665 -0.017585773 0.18704031 -0.01588416
0000d0 ef 2a 31 3d 03 e0 42 3e d3 c9 3b 3e c9 ed a6 3d
       0.043253835 0.19030766 0.18338709 0.08150823
0000e0 1c 5e d5 3d 4d 4b 30 bc f3 86 1c be dd e9 b2 bd
       0.104183406 -0.010760141 -0.15285854 -0.08736012
0000f0 d1 78 1b 3e da d3 09 3d 98 24 1f 3e d3 b9 3f be
       0.15182807 0.033649303 0.15541303 -0.1872323
000100 fc 0b 87 3e 6d 95 f0 3d 8a b7 9e be cf ed 5f be
       0.2637633 0.11747251 -0.30999404 -0.2186806
000110 eb 06 0d be cf 5c cd 3d f3 50 a6 3e 32 c4 1e 3e
       -0.1377217 0.100274675 0.32483634 0.1550453
000120 5f 53 10 be c2 65 76 3b e9 9f d1 3c 49 b2 88 be
       -0.14094304 0.0037597273 0.025588946 -0.2669852
000130 4b 34 68 3d 82 38 bf 3d 47 bf 09 3e 7e ba 70 be
       0.056690495 0.0933695 0.13451873 -0.23508641
000140 0b 0e 86 bd 5e 56 45 3e f7 7b fa 3d b4 ca 37 be
       -0.06545647 0.19271228 0.12230676 -0.17948419
000150 c1 24 65 3c c1 03 58 be 0d 87 2d bd af 4d 35 3e
       0.013985814 -0.21095182 -0.042365123 0.17705415
000160 a0 ec 2d 3d 6b 5b 52 3e 76 46 e5 3d 9a ec 77 3e
       0.04246199 0.20542686 0.1119508 0.2421135
000170 70 30 c6 bb d3 a2 31 bd 07 93 e1 3d 58 bf d0 3d
       -0.0060482547 -0.043368172 0.11014371 0.10192746
000180 8a c2 08 bd d9 d2 df bd b7 98 9c be cc 26 da 3c
       -0.033388652 -0.10928888 -0.30585262 0.026629828
000190 fe 9f 5e be 14 75 19 bd 3a ca 39 be a9 ef 18 3e
       -0.2174072 -0.03746517 -0.1814355 0.14935173
0001a0 17 8c 56 3d 10 b7 4a 3d 18 37 74 bd ed 13 fe bd
       0.052379694 0.04949099 -0.059622854 -0.12406144
0001b0 da ac 26 3e 7d be 1e be f8 92 15 3e df b9 2e 3d
       0.16276875 -0.15502353 0.14606845 0.04265773
0001c0 0d ce e7 3d 97 bd d9 bd e6 4e 24 3e bf a0 df bc
       0.11318598 -0.106318645 0.16045722 -0.02729833
0001d0 ae 26 b8 3d 90 06 00 3e 67 93 a1 3d 6a 58 1f be
       0.089917526 0.12502503 0.07889443 -0.15561071
0001e0 67 b8 fe bd 59 7a 1e 3e 98 c1 85 be de ea 30 3e
       -0.12437516 0.1547636 -0.26124263 0.17277095
0001f0 f1 74 41 3c be c8 b5 3c 02 98 ce 3b bd 8e 23 be
       0.011807666 0.022190448 0.006304742 -0.15972419
000200 3b 4a 20 bd da 7c 68 bd 96 6f 27 bb f0 26 ad bd
       -0.03913329 -0.056759693 -0.0025548688 -0.08454692
000210 f2 bb c9 3d e5 66 0f 3e 45 8c 7e be 16 a3 13 3d
       0.09850301 0.14004095 -0.24858196 0.036044203
000220 3b f0 97 be 51 be 21 bd a2 c1 0d 3e d4 bd 64 be
       -0.2967547 -0.03948814 0.13843396 -0.22338039
000230 fa 95 8a bd f3 f0 26 be 9d e2 21 bf 26 66 16 bd
       -0.06766887 -0.16302852 -0.6323641 -0.03671851
000240 69 02 a0 be a7 52 38 3e df 93 83 bc 95 01 bd bc
       -0.3125184 0.1800028 -0.016061721 -0.023072043
000250 0a 76 69 bd d3 6c bb bd c7 60 fd bc 70 8b 6f 3e
       -0.056997336 -0.09151616 -0.030929936 0.23393035
000260 59 09 24 3d 72 dd 8e be 01 d1 48 be d6 d5 f3 bd
       0.040047977 -0.27903324 -0.19610979 -0.1190602
000270 d9 50 17 bf 07 11 d3 3d 0b 0d 94 be 8a 0f 2c bd
       -0.5910774 0.10305982 -0.289162 -0.042007007
000280 56 b3 bb bb 19 f5 19 be d2 fa e7 bd c8 50 16 3e
       -0.0057281656 -0.15034904 -0.11327137 0.14679253
000290 f1 ef 0d 3e fe d8 61 be 19 76 82 3e bf 59 84 3d
       0.13861062 -0.22055432 0.25480726 0.0646243
0002a0 d4 b7 99 bd 34 f9 27 bd 27 3e b9 be 8c a7 b1 3d
       -0.075057656 -0.041009143 -0.3618023 0.08674535
0002b0 8c 8a 55 be 9d 86 20 be 4b 8c 3b 3d 3e 85 0a bc
       -0.20853633 -0.15676351 0.04578809 -0.008454619
0002c0 fc c6 18 be 5c e7 11 3e 42 e4 a7 bd 32 9b 82 bc
       -0.14919657 0.14248413 -0.081978336 -0.015943144
0002d0 e7 72 fc 3c 35 52 e2 bc e5 c3 02 be b6 07 58 3d
       0.030816508 -0.02762709 -0.1277004 0.05274173
0002e0 b8 8e bd be e7 db 13 3e 00 a1 14 bc cc 2a 09 bd
       -0.37022948 0.14439355 -0.0090715885 -0.03348808
0002f0 cc c0 28 3e 1b 69 b8 bd ec 4a ee 3d 90 e9 0b 3b
       0.16479796 -0.09004422 0.11635384 0.002134893
000300 36 de 06 bf 48 1c 70 bd 5f 41 95 ba 67 bb 57 3d
       -0.52682817 -0.05862072 -0.001138728 0.052668955
000310 e4 8f 42 3d 17 3f 3c 3e 57 7f 51 3c 4d c5 93 3d
       0.047500506 0.18383442 0.012786708 0.072153665
000320 70 60 26 3e cd c3 0a be b0 39 6a be 13 92 f0 3b
       0.16247725 -0.13551255 -0.22873569 0.007341632
000330 f8 73 3e 3e 7c a2 b8 be 60 28 07 3e a7 52 2f 3e
       0.18598926 -0.36061466 0.13198996 0.17121373
000340 85 0f 31 bd 06 17 aa be ad ca 23 3e 55 31 b4 3d
       -0.04322769 -0.3322069 0.15995283 0.08798472
000350 4e 55 0b be c2 21 40 3e ac ba 26 bc f2 85 40 be
       -0.1360676 0.18762878 -0.010176342 -0.18801096
000360 3c 3e 0c be a3 0a 56 3e 23 19 0e 3e a0 5b 96 3d
       -0.13695616 0.20902495 0.13876776 0.07341695
000370 74 24 a5 3d 19 6b a9 3d 87 7e 6e 3d e3 70 5f be
       0.080635935 0.082723804 0.058226135 -0.21820407
000380 e9 5d 37 bd 55 d2 93 bd 37 11 84 bd df c0 45 3e
       -0.044767294 -0.07217852 -0.06448596 0.19311856
000390 17 8a a6 3d 9c db 92 3d 57 35 eb 3d f6 92 01 bf
       0.08131807 0.071707934 0.11484783 -0.5061487
0003a0 ee fc d3 bd a7 9c 86 be 85 b9 27 3e f4 5b 7c 3c
       -0.10350977 -0.2629139 0.16379364 0.015402783
0003b0 7b 81 19 bd 14 cb 80 bd 0a 58 41 be 7a 85 46 3d
       -0.037476998 -0.06288734 -0.1888124 0.048467137
0003c0 2d 51 73 bd 1b 00 c5 bd ad 58 40 3d b4 a8 1b be
       -0.059403587 -0.09619161 0.046959568 -0.15201074
0003d0 aa c9 6b be 89 f2 16 3d e9 67 54 3d 82 85 35 be
       -0.23026147 0.036852393 0.05185691 -0.1772671
0003e0 00 1a 45 bd e2 81 96 3d ab 0c 55 be 42 54 12 be
       -0.0481205 0.07348992 -0.20805614 -0.14289954
0003f0 70 9e 33 3e f3 00 7b 3e 89 53 1f 3e 04 6b 57 bd
       0.17540908 0.24512081 0.1555921 -0.052592292
